trained_lstm_model.pth (torch, 2273 bytes, 6 tensors)

lstm.weight_ih_l0 f4 [8, 1]
00000000: ee70 4240 826f e1bf cd42 ad3f 4460 b73f
00000010: 4392 2d40 8d50 2c3f c0d0 e33f 6678 ef3e
3.0381427 -1.7612154 1.3536011 1.4326253 2.712052 0.6731041 1.779808 0.46771544

lstm.weight_hh_l0 f4 [8, 2]
00000000: 3473 9d3d 1536 6f40 d55f 7cba 36bb f3bf
00000010: 40ab 33bf 7d45 9f3f 415d f140 d632 54bf
00000020: 3ff9 84bf 41a0 7b3f 4883 f7bf 5d48 3a40
00000030: 7638 e3bf 978b debe a22a 5e3e 3b07 33bf
0.07687989 3.737676 -0.0009627317 -1.9041507 -0.7018318 1.2443081 7.5426335 -0.8289007
-1.0388564 0.98291403 -1.9336939 2.9106667 -1.7751606 -0.43465874 0.2169595 -0.6993291

lstm.bias_ih_l0 f4 [8]
00000000: ed3b 3f3e bf79 3abf 1709 8fbe 3848 2e3f
00000010: b1e0 15bf 152f cabc ea2b 09bd c9e0 0ebf
0.18675204 -0.7284202 -0.27936623 0.6807895 -0.58545977 -0.024680654 -0.033489145 -0.55811745

lstm.bias_hh_l0 f4 [8]
00000000: 41d7 893e 4733 79bf 8d4d c0be 0ade d63e
00000010: 35db 813b 4e9c b93a 854c 903f 5157 23bf
0.26922038 -0.9734387 -0.37559167 0.41966277 0.003962899 0.0014160962 1.1273352 -0.6380511

fc.weight f4 [4, 2]
00000000: 2a3d 453f b0ad b3be 8223 453f 8a10 94be
00000010: b602 463f 8074 79be d325 453f 3b57 40be
0.77046454 -0.3509345 0.77007306 -0.28918868 0.77347887 -0.24360847 0.7701084 -0.18783276

fc.bias f4 [4]
00000000: ecbd 563e 351b 5e3e 607b 653e c3f0 693e
0.20970887 0.21690066 0.22410345 0.2284575
