trained_lstm_model.pth (torch, 2273 bytes, 6 tensors)

lstm.weight_ih_l0 f4 [8, 1]
00000000: 3ae1 5e40 58ca 41bf 4985 5740 3296 55bf
00000010: bbf0 2ac0 f5b7 9bbf f909 1a40 a84b 013f
3.4824967 -0.7569938 3.36751 -0.83432305 -2.670943 -1.2165514 2.4068587 0.5050607

lstm.weight_hh_l0 f4 [8, 2]
00000000: be04 aa40 513b b4c0 9bab 55c0 4e62 edbf
00000010: 220d 25c0 d7e9 d9c0 ac89 ddbf 8f46 b13b
00000020: 26da adbf fc22 6a40 2ca6 24c0 ca7d d1bb
00000030: 0ef4 b7c0 41dc a8c0 5941 a03f b5c3 5b40
5.313079 -5.632241 -3.338599 -1.8545625 -2.5789266 -6.809795 -1.7307639 0.0054100226
-1.3582199 3.6583853 -2.5726423 -0.006393169 -5.748542 -5.2768865 1.2519943 3.43382

lstm.bias_ih_l0 f4 [8]
00000000: 7a9c 403f ca26 063f dbf9 45bf a8a8 483f
00000010: 6ffd b6be a83d e23e abed 1440 53fd 0fbf
0.75238764 0.5240294 -0.77334374 0.7838235 -0.3574023 0.44187665 2.327006 -0.5624592

lstm.bias_hh_l0 f4 [8]
00000000: 38a8 b23f ad81 edbe d9c4 8fbf 1904 ae3f
00000010: 7e40 debd e780 c53d f17f e03f 3b36 e3bd
1.3957586 -0.46387997 -1.1231948 1.3595 -0.10852145 0.09643727 1.7539045 -0.11094328

fc.weight f4 [4, 2]
00000000: 49cd 89bf b75b a03f 7c5f c1bf b956 143f
00000010: 7448 f0bf c7ab 93bc 7939 07c0 ef36 e1be
-1.0765773 1.2527989 -1.5107265 0.5794483 -1.8772111 -0.018026246 -2.1128829 -0.43987224

fc.bias f4 [4]
00000000: 99c0 09be 84d6 a63d 95c9 8b3e 2a39 d13e
-0.13452376 0.08146384 0.27302232 0.40863925
