trained_lstm_model.pth (torch, 2273 bytes, 6 tensors)

lstm.weight_ih_l0 f4 [8, 1]
00000000: 6d83 8040 cad3 493f d2bc 2140 508f 65be
00000010: abd3 3940 0352 1c3f fdd8 2340 997e 9d3f
4.016043 0.7883879 2.5271497 -0.2241795 2.9035442 0.6106264 2.560119 1.230426

lstm.weight_hh_l0 f4 [8, 2]
00000000: 87d6 0d40 8ec0 c740 b0d8 873f 0c1e 2e40
00000010: c015 b840 6e27 ca40 3b06 373f 946f 483e
00000020: 3038 8abf 0be5 9540 3441 1bc0 0946 99bf
00000030: e1cc 1ac0 1403 ad40 ceda ecbf b00f 09c0
2.2162187 6.242255 1.0613003 2.720584 5.752655 6.317313 0.7149388 0.19573814
-1.0798397 4.6842093 -2.4258547 -1.1974498 -2.4187548 5.4066257 -1.8504274 -2.1415825

lstm.bias_ih_l0 f4 [8]
00000000: f386 e93f 9de1 c3be 5dd4 9cbf 68a9 c03f
00000010: c20e 893e 8bb1 cbbe 8222 5b3f 6768 8f3e
1.8244308 -0.38258067 -1.2252308 1.5051699 0.26769072 -0.39783892 0.8559953 0.2800934

lstm.bias_hh_l0 f4 [8]
00000000: 8ab2 f83f fb18 863d a36b f1bf 9b82 ac3f
00000010: 2f7c 963e 8787 66be d114 513f 82a5 20bf
1.9429486 0.065477334 -1.8860973 1.3477358 0.2939162 -0.22512637 0.8167239 -0.62752545

fc.weight f4 [4, 2]
00000000: 97d4 753f 1031 c3bf 9cd6 be3f 3ed1 55bf
00000010: ceab f83f b478 5cbe 368f 0f40 23f7 6b3e
0.9602751 -1.5249348 1.4909244 -0.83522403 1.9427431 -0.2153042 2.243116 0.23043494

fc.bias f4 [4]
00000000: f318 2bbe 2ef2 143d fb85 5f3e 91a4 b23e
-0.16708736 0.036363773 0.21828453 0.3489118
