trained_lstm_model.pth (torch, 3225 bytes, 6 tensors)

lstm.weight_ih_l0 f4 [8, 1]
000000 3f 9d 4a bd 22 2b bd 3f 3a 26 23 bf d6 2f b5 3f
       -0.049466368 1.4778788 -0.63730204 1.4155223
000010 db a4 c0 be 10 b4 62 bf bb 81 49 3e f3 e4 aa 3f
       -0.37625775 -0.88556004 0.19678394 1.335112

lstm.weight_hh_l0 f4 [8, 2]
000000 cf 39 da 3d 00 73 80 3e 08 78 23 3f 92 5b 33 bf
       0.10655557 0.25087738 0.6385503 -0.700616
000010 68 07 a6 be cb 2a fb be 79 c8 2f bf 34 1e 6d 3d
       -0.32427526 -0.49056086 -0.6866527 0.057890132
000020 63 b3 4d 3c 76 d3 95 be a4 7b c7 bd 8d a8 0f bf
       0.012554976 -0.29262894 -0.097403795 -0.56116563
000030 dd 09 8c be ee 5a da be 12 f9 04 3f 17 33 96 bf
       -0.27351275 -0.426475 0.5194255 -1.1734341

lstm.bias_ih_l0 f4 [8]
000000 3e 2a 23 3f 91 a6 59 bd e8 9e 99 bc 49 bd 6a 3e
       0.6373633 -0.053137366 -0.01875253 0.22923769
000010 35 aa 82 bd 45 6f 9e bc 34 ce 5c 3d 3f d5 58 3f
       -0.06380121 -0.019340167 0.053907588 0.8470039

lstm.bias_hh_l0 f4 [8]
000000 30 87 33 3f 22 39 ee 3c 9d 1a 25 3f 87 65 3d be
       0.70128155 0.029079977 0.64493734 -0.18495761
000010 54 30 63 3f d4 bc 2b be 78 73 71 3f 41 49 50 3f
       0.8874562 -0.16771251 0.94316816 0.81361777

fc.weight f4 [4, 2]
000000 81 ad 01 bf 70 48 8f bf 1e e6 22 be a6 df 89 bf
       -0.5065537 -1.1193981 -0.15908095 -1.0771377
000010 6d c2 f6 be 1b 6d 88 bf 8d f2 03 3f 5f 51 7f bf
       -0.4819521 -1.0658296 0.5154198 -0.9973354

fc.bias f4 [4]
000000 55 86 3f 3e 04 df b0 bc 61 32 43 3e c5 c7 da be
       0.18703587 -0.021590717 0.19062187 -0.42730537
