trained_lstm_model.pth (torch, 16161 bytes, 10 tensors)

lstm.weight_ih_l0 f4 [64, 1]
0.3048293 0.3299259 0.30712864 0.21417643 0.5198525 -0.2160285 -0.017720878 0.23362032
0.16717087 -0.058527403 0.22344609 0.20110652 0.44891387 0.06425401 0.14521785 0.16897878
0.43133894 0.27365622 0.08216058 0.40009353 0.29102063 0.060018 0.38689646 0.19090852
0.14409545 -0.0876559 0.13168071 -0.20366229 0.15412581 0.14231637 -0.4980118 -0.9235072
0.20472008 -0.37297073 -0.25378236 -0.28360027 -0.4479016 0.20657778 -0.24241896 -0.55165523
-0.011071101 -0.38673925 -0.52639955 0.17264475 -0.2751824 -0.670042 -0.43626255 -0.7319042
0.45541513 0.07586221 0.3028863 0.2964515 0.023891052 -0.25498456 0.43074724 0.48432073
-0.029359128 0.019928487 0.51999736 -0.014366782 0.044936452 0.017671807 -0.10903371 0.28433353
00000000: 9612 9c3e 0cec a83e f73f 9d3e 1151 5b3e
00000010: 0e15 053f 9336 5dbe 602b 91bc 2a3a 6f3e
00000020: d72e 2b3e 6eba 6fbd 0dcf 643e deee 4d3e
00000030: 0ad8 e53e 9b97 833d fdb3 143e c608 2d3e
00000040: 75d8 dc3e ab1c 8c3e ce43 a83d 0fd9 cc3e
00000050: a800 953e 6fd5 753d 4b17 c63e 867d 433e
00000060: c28d 133e f084 b3bd 4fd7 063e d98c 50be
00000070: 28d3 1d3e 62bb 113e 67fb febe f86a 6cbf
00000080: 24a2 513e 05f6 bebe c3ef 81be 0e34 91be
00000090: 5c53 e5be 2089 533e ad3c 78be 4739 0dbf
000000a0: 9063 35bc b002 c6be 1fc2 06bf c9c9 303e
000000b0: b5e4 8cbe df87 2bbf ce5d dfbe 135e 3bbf
000000c0: 2c2c e93e a55d 9b3d ea13 9b3e 7ec8 973e
000000d0: 2bb7 c33c 568d 82be e78a dc3e e3f8 f73e
000000e0: 8e82 f0bc 1141 a33c 8c1e 053f a762 6bbc
000000f0: 490f 383d 77c4 903c 114d dfbd 2a94 913e

lstm.weight_hh_l0 f4 [64, 16]
-0.06941216 0.07348077 0.060816195 -0.059924733 -0.2183554 0.15979351 -0.25101745 -0.11996543
0.057846706 0.07434578 0.080772825 0.2600933 -0.15430774 -0.17773634 0.32372022 0.10662805
0.428935 0.03628971 -0.034971215 0.022822212 0.030586775 -0.024007302 0.09992095 0.00086228567
-0.28566596 -0.109685905 0.12933724 0.23898867 -0.08668277 -0.2641991 0.066601016 0.4511977
-0.008855639 -0.22257008 -0.12688285 -0.026299907 -0.19799905 0.1404453 -0.14409773 0.1683811
-0.2528127 -0.16161673 -0.05179037 0.034084324 -0.17437303 -0.07421165 -0.064677864 0.105336465
0.11117934 -0.16746686 -0.074450575 -0.35484233 -0.35627565 -0.42852718 -0.44957933 -0.054106623
-0.4532001 -0.10122404 0.025166085 0.48205972 -0.112747036 -0.13631436 0.34042943 0.16730836
0.4055732 -0.056590848 -0.25009733 -0.22111653 -0.16853987 -0.42326772 -0.49894765 -0.1565748
-0.31695017 0.07480789 0.0061291256 0.43473133 -0.14474829 -0.29175413 0.55270916 0.3591266
0.21616413 -0.37300938 -0.04122227 -0.1361561 -0.25784668 -0.30784974 -0.21405537 -0.2367385
0.027618853 -0.2747907 -0.27115387 0.044221465 -0.2703308 -0.11398838 0.09515534 -0.16725068
0.2509395 0.061013322 -0.0676151 -0.13084756 -0.40940842 -0.11745811 -0.003574694 0.13436693
-0.32095945 -0.40229523 -0.19070973 0.21794412 -0.23201111 -0.007784379 0.18802144 0.38582492
0.19490248 -0.07251143 -0.43871242 -0.3241662 -0.16625375 -0.1587867 -0.24661487 -0.34733298
-0.1392823 0.062150795 -0.12252635 0.33874753 -0.19300075 0.032898337 0.3740744 0.24726902
-0.032331068 -0.08320144 -0.08841294 -0.066882 -0.1733124 0.015324992 -0.2438905 -0.106070034
0.0040403306 -0.1672001 -0.15385085 0.4494472 -0.060820214 -0.118506834 -0.036979582 0.12527637
0.2662644 -0.4348327 -0.3590006 -0.53626084 -0.48046404 -0.33276755 -0.25666356 -0.37334672
-0.3451134 -0.21978435 -0.24652854 0.27873746 -0.33724284 -0.0068103513 0.36965773 0.8155825
0.35975084 0.0362136 -0.026576525 -0.3669269 -0.21477279 -0.25177836 -0.14901996 -0.15427035
-0.35758898 -0.1044571 -0.27373123 0.3864953 0.07765855 -0.37236816 0.048801184 0.01615649
0.1933946 0.19206384 -0.14711711 0.13373233 0.15442608 -0.29006144 -0.0014635547 -0.056392446
0.1579642 0.1746778 0.21158817 0.26467773 -0.016717186 -0.15468833 0.42235407 0.61128604
0.16694136 -0.27414173 -0.016261067 0.018351516 -0.12153209 -0.0009332734 -0.29796115 -0.31512016
-0.24680245 0.063203506 0.057331365 0.45134902 -0.32948136 -0.1067498 0.34113768 0.4611146
0.4774618 -0.06286904 -0.15319026 -0.57571894 -0.54714096 -0.052104563 -0.52011555 -0.32385224
-0.036183327 -0.2263635 -0.34085563 0.20881319 -0.0027276014 0.0014339112 0.17887262 0.5598089
0.29031855 -0.041745547 -0.19405198 -0.12913099 -0.060032148 -0.5244962 -0.16268525 -0.16081887
-0.42133301 -0.0037440695 -0.32588297 0.1394344 0.019547844 0.034345813 0.0059413686 -0.003940794
0.6543606 -0.563957 -0.35752523 -0.7992569 -0.5723171 -0.53988594 -0.6549514 -0.32317543
-0.6318541 -0.14264283 -0.20180449 0.53184223 -0.36297837 -0.36464795 0.88622344 0.62260664
00000000: f627 8ebd 167d 963d 671a 793d a373 75bd
00000010: 8f98 5fbe e9a0 233e 5c85 80be 6fb0 f5bd
00000020: abf0 6c3d 9a42 983d 396c a53d f32a 853e
00000030: d902 1ebe 8400 36be a8be a53e cf5f da3d
00000040: 5e9d db3e 85a4 143d fa3d 0fbd a6f5 ba3c
00000050: 1e91 fa3c f6aa c4bc 5ba3 cc3d 030b 623a
00000060: cf42 92be 01a3 e0bd fb70 043e 72b9 743e
00000070: bc86 b1bd 1b45 87be 1d66 883d 6303 e73e
00000080: 3e17 11bc 69e9 63be 94ed 01be e772 d7bc
00000090: 43c0 4abe e5d0 0f3e 5b8e 13be 186c 2c3e
000000a0: ab70 81be db7e 25be 2422 54bd 019c 0b3d
000000b0: d88e 32be 47fc 97bd d475 84bd a5ba d73d
000000c0: feb1 e33d 6f7c 2bbe 8b79 98bd e5ad b5be
000000d0: c369 b6be ea67 dbbe 432f e6be e89e 5dbd
000000e0: d809 e8be 8d4e cfbd 1b29 ce3c 88d0 f63e
000000f0: ebe7 e6bd fe95 0bbe c44c ae3e e252 2b3e
00000100: 4aa7 cf3e cecb 67bd c20c 80be 5f6c 62be
00000110: b795 2cbe 8cb6 d8be 1176 ffbe 2555 20be
00000120: 4b47 a2be e134 993d d5d6 c83b 1b95 de3e
00000130: e538 14be cc60 95be 597e 0d3f 71df b73e
00000140: 215a 5d3e 16fb bebe afd8 28bd 816c 0bbe
00000150: 7b04 84be 7b9e 9dbe 5531 5bbe 946b 72be
00000160: ef40 e23c 5eb1 8cbe aed4 8abe 9121 353d
00000170: cc68 8abe bd72 e9bd cee0 c23d c343 2bbe
00000180: 247b 803e 1be9 793d c979 8abd e7fc 05be
00000190: fb9d d1be e18d f0bd 6a45 6abb 7c97 093e
000001a0: cc54 a4be a4f9 cdbe 6949 43be be2c 5f3e
000001b0: 5294 6dbe 1b14 ffbb b188 403e d88a c53e
000001c0: 8494 473e df80 94bd ea9e e0be 1df9 a5be
000001d0: 6c3e 2abe fb98 22be 9c88 7cbe a1d5 b1be
000001e0: 05a0 0ebe d591 7e3d 18ef fabd 5170 ad3e
000001f0: fda1 45be 68c0 063d ae86 bf3e 1734 7d3e
00000200: 956d 04bd 8465 aabd d811 b5bd 6ef9 88bd
00000210: ce78 31be ad15 7b3c 6ebe 79be 3f3b d9bd
00000220: c064 843b 8136 2bbe 148b 1dbe f21d e63e
00000230: 9e1e 79bd b6b3 f2bd e777 17bd 7348 003e
00000240: cf53 883e 64a2 debe edce b7be 6448 09bf
00000250: 62ff f5be 8260 aabe 6869 83be 4d27 bfbe
00000260: b4b2 b0be 260f 61be fa71 7cbe adb6 8e3e
00000270: 18ab acbe 5e29 dfbb c743 bd3e 04ca 503f
00000280: 4331 b83e b654 143d 03b7 d9bc d8dd bbbe
00000290: 66ed 5bbe 18e9 80be b098 18be 0cf9 1dbe
000002a0: e715 b7be 9bed d5bd 8026 8cbe b6e2 c53e
000002b0: 720b 9f3d 0aa7 bebe c0e3 473d 9e5a 843c
000002c0: 3c09 463e 62ac 443e dea5 16be 21f1 083e
000002d0: df21 1e3e ef82 94be bfd4 bfba c4fb 66bd
000002e0: 5ec1 213e bdde 323e 92aa 583e d783 873e
000002f0: 7bf2 88bc 9e66 1ebe cb3e d83e 3e7d 1c3f
00000300: adf2 2a3e 4e5c 8cbe ee35 85bc eb55 963c
00000310: d1e5 f8bd eba6 74ba 5d8e 98be 6e57 a1be
00000320: c8b9 7cbe d770 813d 4bd4 6a3d 3817 e73e
00000330: c8b1 a8be a49f dabd 99a9 ae3e 3617 ec3e
00000340: e075 f43e 7cc1 80bd e8dd 1cbe 5162 13bf
00000350: 6e11 0cbf 986b 55bd 4b26 05bf f6cf a5be
00000360: f834 14bd d5cb 67be a184 aebe 20d3 553e
00000370: 8fc1 32bb 13f2 bb3a 622a 373e a34f 0f3f
00000380: a2a4 943e 61fd 2abd 90b5 46be ea3a 04be
00000390: 45e4 75bd 6245 06bf f696 26be b4ad 24be
000003a0: f6b8 d7be 105f 75bb 22da a6be e4c7 0e3e
000003b0: cd22 a03c 32ae 0c3d d0af c23b c721 81bb
000003c0: 2d84 273f 7c5f 10bf 8c0d b7be 1a9c 4cbf
000003d0: 6083 12bf f735 0abf e5aa 27bf 4077 a5be
000003e0: 31c1 21bf f610 12be d6a5 4ebe d026 083f
000003f0: 4dd8 b9be 23b3 babe 8adf 623f 2663 1f3f

lstm.bias_ih_l0 f4 [64]
0.25017357 0.41914123 -0.09265804 0.22229603 0.092952505 -0.12919356 0.39014563 -0.0021238942
0.1045665 0.32622585 0.41846046 0.13457038 0.37782153 0.23794599 0.15410131 0.37199387
0.10190058 -0.13867086 -0.12327935 0.1879544 0.06781309 0.11827221 -0.105199195 0.2255729
0.098137595 -0.07027657 -0.11471599 0.24638177 0.11877096 0.14986667 -0.10240529 -0.025690412
0.14627346 0.059846845 -0.26989195 -0.083003804 -0.09817586 -0.15223053 0.17286542 -0.10553151
-0.13592847 -0.15444203 -0.08639536 0.07849932 -0.03817802 -0.032448918 0.03848912 0.16461377
0.009893567 0.4746292 -0.11436134 0.4238904 0.37324852 0.11990179 0.3199663 0.24460375
-0.08970571 0.45670626 0.119658045 0.30957437 0.32533044 0.36017978 0.0045279916 0.78403896
00000000: c016 803e ae99 d63e 80c3 bdbd 92a1 633e
00000010: e25d be3d 514b 04be 2bc1 c73e 0831 0bbb
00000020: f626 d63d 1307 a73e 7340 d63e d1cc 093e
00000030: d371 c13e 1da8 733e bccc 1d3e fb75 be3e
00000040: 40b1 d03d bcff 0dbe e279 fcbd 1e77 403e
00000050: 97e1 8a3d b338 f23d ad72 d7bd 95fc 663e
00000060: 5dfc c83d 2aed 8fbd 38f0 eabd 814b 7c3e
00000070: 303e f33d a676 193e ddb9 d1bd b374 d2bc
00000080: b6c8 153e f721 753d 472f 8abe e6fd a9bd
00000090: 6d10 c9bd 52e2 1bbe a203 313e e820 d8bd
000000a0: d530 0bbe 0d26 1ebe 0df0 b0bd 40c4 a03d
000000b0: 8e60 1cbd 28e9 04bd c4a6 1d3d 8390 283e
000000c0: a118 223c 9902 f33e 4736 eabd 2a08 d93e
000000d0: 6e1a bf3e 128f f53d 9fd2 a33e 6879 7a3e
000000e0: a1b7 b7bd 67d5 e93e 470f f53d 8880 9e3e
000000f0: b691 a63e 7c69 b83e 8c5f 943b c7b6 483f

lstm.bias_hh_l0 f4 [64]
0.18943356 0.062362503 0.18797803 0.22221181 0.20062928 -0.051803455 0.14765963 0.108452715
0.19180551 0.102207735 0.104129665 -0.14965104 -0.056619514 0.07125902 0.3966058 0.61626977
0.011534598 0.021609299 -0.19966157 0.27591607 0.08342459 0.116210125 -0.05129283 -0.21635436
-0.010004416 -0.15587582 0.11662684 0.043307003 0.13239689 -0.04114387 0.22340418 -0.019527486
0.2241144 -0.24147636 0.18969838 0.012682594 0.03181056 0.019584382 -0.0145726865 -0.10320461
-0.20763972 0.053520888 0.1291863 0.15053938 -0.23925313 -0.14434038 0.22864763 0.18032669
-0.052419007 0.2302498 0.22754854 0.24269447 0.5025605 0.27348375 0.31846341 0.35516545
-0.12056842 0.35784638 0.27196252 -0.07000384 0.10305796 -0.01717092 -0.021757979 0.7565379
00000000: dffa 413e d36f 7f3d 507d 403e 7e8b 633e
00000010: c371 4d3e dc2f 54bd 1634 173e 751c de3d
00000020: aa68 443e 4a52 d13d ef41 d53d 1f3e 19be
00000030: dde9 67bd 40f0 913d ea0f cb3e dbc3 1d3f
00000040: 9cfb 3c3c fc05 b13c 1574 4cbe df44 8d3e
00000050: 83da aa3d 93ff ed3d 6e18 52bd ff8b 5dbe
00000060: 90e9 23bc e99d 1fbe 0dda ee3d af62 313d
00000070: 0d93 073e 7a86 28bd 11c4 643e 1bf8 9fbc
00000080: 3f7e 653e 9445 77be 4b40 423e a8ca 4f3c
00000090: ca4b 023d 6d6f a03c 47c2 6ebc f05c d3bd
000000a0: 829f 54be b838 5b3d 6a49 043e ff26 1a3e
000000b0: c6fe 74be f7cd 13be 9b22 6a3e 8fa7 383e
000000c0: 50b5 56bd 9bc6 6b3e 7c02 693e e684 783e
000000d0: cea7 003f 1006 8c3e a30d a33e 3fd8 b53e
000000e0: 93ec f6bd a437 b73e ac3e 8b3e 2c5e 8fbd
000000f0: 0d10 d33d 07aa 8cbc ca3d b2bc 78ac 413f

lstm.weight_ih_l1 f4 [64, 16]
0.05171979 -0.28622013 -0.05991723 -0.123972856 -0.07543538 -0.25156155 -0.103461266 -0.21826856
-0.43897173 -0.32346833 -0.24429317 0.37408638 0.016529385 -0.035489846 -0.029917281 -0.23749703
0.15811999 -0.17402156 -0.14843187 0.09161177 -0.41589463 0.0440437 -0.30346724 -0.30288503
0.08270898 -0.22559148 0.058941912 0.21820304 -0.028411234 -0.24816327 -0.22254887 0.0038220466
-0.17942235 0.19802713 -0.056996334 -0.25940216 -0.49969754 -0.18646432 0.104212806 -0.19429156
0.11584177 0.15712078 -0.3175837 0.015979115 0.23588055 -0.20853181 -0.11624266 -0.07653257
0.31243977 -0.38339397 -0.11393412 -0.26510376 -0.21438952 0.15835434 -0.19980647 0.017000157
-0.20005934 -0.18574545 -0.31342015 0.2849917 -0.22802076 -8.350388e-05 -0.06087552 -0.106847785
0.4148811 -0.16989878 -0.4869387 -0.40506116 -0.23591149 -0.8533631 -0.42997295 -0.2874013
-0.5335831 0.17497139 -0.24287838 0.4364483 0.096970625 0.007885096 0.2932358 0.30654615
0.2141523 -0.029402984 -0.057569098 -0.42549407 -0.456283 0.06636998 -0.22827217 0.06436017
-0.1765853 0.07473988 -0.09959811 0.08820974 0.06631762 0.08162534 -0.1328628 -0.25881448
0.13125359 -0.26948503 -0.31241128 -0.16558178 -0.19065762 -0.29227653 -0.35531214 -0.3721019
-0.4656514 -0.0006310057 -0.23766023 0.41162047 -0.12709348 -0.3622908 0.011898995 -0.22036101
-0.14876658 0.13756838 0.064391114 0.053350713 -0.04492778 0.37887424 -0.2538474 0.08478783
-0.16257802 -0.33443674 0.0967005 0.17044164 -0.067964524 0.19401315 0.15847632 -0.23901999
0.16328853 -0.20906556 -0.11361964 -0.13410419 -0.42220184 -0.5375713 -0.1457653 -0.28204116
-0.2793186 -0.06487264 -0.013952845 0.10004455 -0.17537464 -0.23884983 0.2124501 0.6407559
0.04441228 -0.22021833 -0.13074677 -0.5733317 -0.39883035 -0.6627821 -0.2873191 -0.28653505
-0.2092863 -0.020022964 -0.28769827 0.22280675 -0.39488232 -0.20917074 0.40255085 -0.13266417
0.2971863 0.007980052 -0.32572147 -0.20865972 -0.055389907 0.10526283 -0.18274334 -0.2248757
0.035479713 -0.03753686 0.03716187 0.069423795 -0.23030306 -0.22513317 -0.29037088 0.03619972
-0.16635542 -0.12348589 0.09511555 -0.31535828 -0.2483061 0.32186493 -0.074566826 0.0069610467
-0.10742405 -0.07287839 0.07660795 0.2946094 0.11368693 0.026934773 -0.15465018 -0.26638472
0.49762428 -0.45095742 -0.21255943 -0.6080696 -0.34944624 -0.53252894 -0.6574639 -0.33441484
-0.12757914 -0.013568386 -0.37957752 0.43355048 -0.19196472 -0.36890304 0.2855979 0.21538061
0.080531545 -0.10566781 -0.36785817 0.20806989 -0.4826021 0.1060887 -0.3136085 0.15766837
-0.22886762 0.13110113 -0.15615523 -0.06987398 0.1902152 -0.17873894 -0.14763242 -0.43359986
0.63109154 -0.14445081 -0.28919923 -0.57726157 -0.4557768 -0.27979982 -0.36949828 -0.40917414
-0.27568334 0.004668766 -0.12231786 0.6485881 -0.19539279 -0.45618328 0.27778354 0.42510056
0.15519936 -0.071376935 -0.20619032 -0.0014522938 -0.029422719 -0.08984956 -0.11696961 -0.38601422
-0.004930672 -0.26739845 -0.33896136 -0.11784414 -0.20246744 -0.13699725 0.053571414 -0.34110388
00000000: 21d8 533d 728b 92be c56b 75bd 7be5 fdbd
00000010: dd7d 9abd adcc 80be 80e3 d3bd cb81 5fbe
00000020: e7c0 e0be a49d a5be fd27 7abe 4088 bf3e
00000030: a268 873c cd5d 11bd 1615 f5bc 6c32 73be
00000040: 35ea 213e b532 32be 86fe 17be f49e bb3d
00000050: 24f0 d4be 2b67 343d 0f60 9bbe bf13 9bbe
00000060: 5363 a93d 7401 67be 136d 713d 9e70 5f3e
00000070: adbe e8bc 831e 7ebe dae3 63be 4d7b 7a3b
00000080: 7eba 37be a0c7 4a3e fd74 69bd 5cd0 84be
00000090: 5bd8 ffbe 81f0 3ebe 866d d53d 5ef4 46be
000000a0: 733e ed3d 45e4 203e 559a a2be a2e6 823c
000000b0: ac8a 713e 5d89 55be a210 eebd 1cbd 9cbd
000000c0: 1bf8 9f3e 374c c4be 4b56 e9bd aebb 87be
000000d0: ed88 5bbe a427 223e 119a 4cbe ea43 8b3c
000000e0: 5bdc 4cbe 0e34 3ebe 9b78 a0be 6fea 913e
000000f0: 467e 69be ce1e afb8 9c58 79bd 03d3 dabd
00000100: 4c6b d43e f2f9 2dbe 0750 f9be 2d64 cfbe
00000110: c892 71be 0176 5abf 6a25 dcbe 4326 93be
00000120: e798 08bf b32b 333e 1cb5 78be 2776 df3e
00000130: 8998 c63d 7d30 013c 0123 963e 9ef3 9c3e
00000140: be4a 5b3e 87de f0bc 93cd 6bbd 5cda d9be
00000150: ed9d e9be fcec 873d 2ec0 69be 44cf 833d
00000160: c7d2 34be 3911 993d 18fa cbbd 4fa7 b43d
00000170: 88d1 873d 302b a73d 300d 08be 5583 84be
00000180: 5767 063e f1f9 89be 5ff4 9fbe 458e 29be
00000190: c03b 43be 45a5 95be 79eb b5be 2484 bebe
000001a0: dc69 eebe 136a 25ba 345d 73be ebbf d23e
000001b0: cb24 02be 2e7e b9be 01f4 423c 51a6 61be
000001c0: 4456 18be bade 0c3e 7ddf 833d 4786 5a3d
000001d0: 3106 38bd cefb c13e 49f8 81be 3ea5 ad3d
000001e0: da7a 26be 4b3b abbe e90a c63d 4188 2e3e
000001f0: fc30 8bbd 62ab 463e 9e47 223e a8c1 74be
00000200: 1c35 273e 4815 56be 6ab1 e8bd 9c52 09be
00000210: d72a d8be 469e 09bf 8043 15be b367 90be
00000220: d902 8fbe f2db 84bd 799a 64bc 28e4 cc3d
00000230: 6995 33be 0d95 74be 858c 593e 9408 243f
00000240: a7e9 353d ea80 61be 7be2 05be dec5 12bf
00000250: 7e33 ccbe 16ac 29bf 7d1b 93be b9b4 92be
00000260: 264f 56be 3307 a4bc 304d 93be 7427 643e
00000270: 042e cabe db30 56be 251b ce3e 1ed9 07be
00000280: cd28 983e c4be 023c f7c4 a6be e5aa 55be
00000290: 87e0 62bd 0a94 d73d 1221 3bbe d145 66be
000002a0: 2d53 113d 40c0 19bd 0c37 183d 102e 8e3d
000002b0: 91d4 6bbe 4f89 66be 7eab 94be 2846 143d
000002c0: 1359 2abe 2ce6 fcbd f1cb c23d a476 a1be
000002d0: f443 7ebe 7bcb a43e 7eb6 98bd 7e19 e43b
000002e0: 2401 dcbd 4441 95bd a1e4 9c3d 0bd7 963e
000002f0: b1d4 e83d 50a6 dc3c 9e5c 1ebe 9463 88be
00000300: 9cc8 fe3e e4e3 e6be 2ea9 59be 73aa 1bbf
00000310: 9eea b2be d153 08bf 8e4f 28bf 6c38 abbe
00000320: 1ba4 02be f04d 5ebc fc57 c2be 54fa dd3e
00000330: 6692 44be dce0 bcbe e339 923e bc8c 5c3e
00000340: b9ed a43d 5d68 d8bd e857 bcbe 4610 553e
00000350: 9f17 f7be 0845 d93d 4b91 a0be d173 213e
00000360: 465c 6abe 603f 063e 28e7 1fbe 171a 8fbd
00000370: c6c7 423e 5707 37be f42c 17be cd00 debe
00000380: 378f 213f eaea 13be ec11 94be 6ac7 13bf
00000390: 945b e9be ec41 8fbe e12e bdbe 467f d1be
000003a0: 5e26 8dbe 73fc 983b c981 fabd df09 263f
000003b0: 0c15 48be db90 e9be a539 8e3e c8a6 d93e
000003c0: 95ec 1e3e 122e 92bd 8e23 53be e55a beba
000003d0: ea07 f1bc 0c03 b8bd c38d efbd a8a3 c5be
000003e0: 7991 a1bb 73e8 88be 588c adbe 4558 f1bd
000003f0: a053 4fbe 0249 0cbe b36d 5b3d 2ba5 aebe

lstm.weight_hh_l1 f4 [64, 16]
0.27618235 0.2268406 -0.17890558 -0.17433101 -0.2583064 0.17531124 -0.24324682 -0.415735
0.24836388 0.4837607 -0.04411068 -0.059607036 0.37519225 0.2420531 -0.16744585 0.24303532
0.2699833 0.2563091 -0.13514532 -0.1308665 0.36067262 -0.0035437425 -0.31449512 0.008914175
0.2086418 0.10905475 0.14685023 0.08129697 -0.09002404 0.18215515 -0.2796968 0.22954783
0.024014177 0.12754895 0.22166722 -0.19232881 0.14470719 0.06667165 -0.27244005 -0.18784669
0.0007023688 -0.08349259 0.036501497 -0.023959441 0.25864086 0.13374428 0.27327317 0.04033135
0.20927659 -0.1836691 0.23068032 -0.062886104 -0.023452353 -0.07198618 -0.057131622 -0.07211361
0.19918837 0.06079003 0.11225125 0.06542333 0.098078534 -0.17655163 0.06141153 -0.06629313
0.2613044 0.16729611 -0.25785837 -0.049310688 -0.16660132 0.12412137 0.34085372 -0.2447348
0.48732597 0.3194034 0.2126031 0.0018113416 0.2073236 0.33862853 -0.100625776 0.18529531
0.028516734 -0.058716808 0.15777604 -0.13879772 -0.15232466 0.14096005 -0.211545 -0.048766065
0.06718093 0.09788038 0.01510631 0.124755725 0.10467966 -0.053021464 -0.18093166 0.11335027
0.16749011 0.35233718 -0.50192285 -0.12176089 -0.19664848 0.33126274 -0.043086413 -0.3448718
0.18024448 0.32016805 0.31424117 -0.04764644 0.22079545 0.0105160065 -0.3259683 0.182687
0.052427992 -0.24899349 0.060593333 0.23955311 -0.122825675 -0.04266507 0.092063576 -0.015136253
0.11554471 -0.25212744 0.14432725 0.0038245083 0.063646436 -0.038075313 0.20622328 -0.08194765
-0.28759775 0.28007862 -0.19886042 -0.08238754 -0.37700891 0.25223398 0.39076078 -0.34267196
0.39929324 0.4922214 0.12783314 -0.27149892 -0.393037 0.14057378 -0.069445394 0.30450314
0.00018867775 0.28460807 -0.14002144 -0.26524732 0.021802759 0.29997984 0.36407584 0.053373314
-0.08253458 0.115908615 0.31445578 0.027542679 -0.17037883 0.20957741 -0.3159439 0.38378718
0.23366886 0.14649574 -0.20950738 0.072455585 0.0746062 0.052099206 0.10928769 0.12054001
-0.124581836 -0.16631618 -0.030526407 -0.17829345 -0.060535952 -0.12684347 0.21110496 -0.1959827
0.023934532 -0.012916008 -0.17558864 0.02163535 -0.046951607 -0.1403575 0.09493372 -0.044824857
0.07462038 0.054249234 0.24822235 0.07694992 0.25056556 0.18014331 0.02157094 -0.02192446
0.23122811 0.31007487 -0.5078903 -0.481056 -0.46572372 0.31539255 -0.098382205 -0.32214183
0.35394135 0.33490852 0.4692678 -0.044019334 0.2575422 0.48825252 -0.3808128 0.18844867
0.09957516 -0.17826708 0.006318131 0.22740293 -0.04689137 -0.15140323 0.03922016 -0.15754016
0.23267728 -0.113422506 -0.12488026 -0.08334643 0.10179738 0.09810055 0.24733321 0.1696591
0.11526797 0.21670288 -0.263622 -0.11901665 0.1916566 0.2795948 0.48779395 -0.25892398
0.5883795 0.45989323 0.14946589 -0.33719105 -0.24190937 0.056793243 -0.39744067 0.29263106
0.21818225 0.09894547 -0.048826575 -0.031998686 0.16392109 0.10337606 0.15227827 -0.24329956
0.06730252 -0.12956822 -0.021465499 0.008105052 0.30936223 0.058946777 0.008050987 -0.013965209
00000000: c667 8d3e e748 683e 0633 37be d483 32be
00000010: bd40 84be ca84 333e b215 79be 38db d4be
00000020: 1a53 7e3e 7caf f73e 67ad 34bd 8226 74bd
00000030: 3319 c03e c5dc 773e ed76 2bbe 40de 783e
00000040: 403b 8a3e f23a 833e 8963 0abe de01 06be
00000050: 15aa b83e 223e 68bb 8105 a1be c30c 123c
00000060: 32a6 553e 1958 df3d e85f 163e 077f a63d
00000070: 865e b8bd e186 3a3e 6b34 8fbe 960e 6b3e
00000080: 61b9 c43c 319c 023e bbfc 623e d8f1 44be
00000090: 1f2e 143e 258b 883d 437d 8bbe e25a 40be
000000a0: 2c1f 383a 2afe aabd 9882 153d 9746 c4bc
000000b0: 936c 843e 43f4 083e 76ea 8b3e 7c32 253d
000000c0: 9a4c 563e c113 3cbe 7637 6c3e 6eca 80bd
000000d0: 261f c0bc 7e6d 93bd d902 6abd 4db0 93bd
000000e0: 09f8 4b3e f7fe 783d fce3 e53d abfc 853d
000000f0: 66dd c83d f3c9 34be a88a 7b3d b1c4 87bd
00000100: b1c9 853e ac4f 2b3e 0306 84be 01fa 49bd
00000110: 8999 2abe 5833 fe3d 6184 ae3e c29b 7abe
00000120: ca82 f93e d888 a33e a1b4 593e 8a6a ed3a
00000130: a34c 543e b860 ad3e e314 cebd 0ebe 3d3e
00000140: ed9b e93c 0981 70bd 0b90 213e fd20 0ebe
00000150: fffa 1bbe d557 103e 419f 58be edbe 47bd
00000160: 2896 893d 8275 c83d 7580 773c ee7f ff3d
00000170: 4a62 d63d 092d 59bd 2646 39be 3024 e83d
00000180: 8782 2b3e 8a65 b43e 047e 00bf c65d f9bd
00000190: 385e 49be 459b a93e 617b 30bd 0993 b0be
000001a0: 0292 383e 11ed a33e 38e4 a03e ea28 43bd
000001b0: 3418 623e 544b 2c3c 51e5 a6be 4d12 3b3e
000001c0: bcbe 563d 26f8 7ebe b730 783d 694d 753e
000001d0: 078c fbbd 92c1 2ebd d48b bc3d 0cfe 77bc
000001e0: b4a2 ec3d d916 81be 86ca 133e 9aa4 7a3b
000001f0: 1059 823d dcf4 1bbd 322c 533e 2bd4 a7bd
00000200: 0340 93be 7766 8f3e 11a2 4bbe ccba a8bd
00000210: 5007 c1be d024 813e cc11 c83e b372 afbe
00000220: 2a70 cc3e 7104 fc3e b1e6 023e e801 8bbe
00000230: 253c c9be 93f2 0f3e 6339 8ebd d6e7 9b3e
00000240: ccd7 4539 26b8 913e c861 0fbe 7fce 87be
00000250: b39b b23c f596 993e 2668 ba3e fa9d 5a3d
00000260: e407 a9bd 7f61 ed3d 5900 a13e 2fa1 e13c
00000270: ca77 2ebe 769b 563e 66c3 a1be c17f c43e
00000280: e446 6f3e fb02 163e 1a89 56be 9863 943d
00000290: 23cb 983d fa65 553d 39d2 df3d aedd f63d
000002a0: c324 ffbd ca4e 2abe 8412 fabc 8f92 36be
000002b0: 8cf4 77bd 41e3 01be e62b 583e b0af 48be
000002c0: 5a12 c43c aa9d 53bc 82cd 33be 9e3c b13c
000002d0: 5450 40bd e0b9 0fbe 9c6c c23d 459a 37bd
000002e0: 92d2 983d 7234 5e3d 002e 7e3e eb97 9d3d
000002f0: 214a 803e 7d77 383e 8ab5 b03c ed9a b3bc
00000300: 10c7 6c3e 22c2 9e3e 1905 02bf f94c f6be
00000310: 5773 eebe 227b a13e 9c7c c9bd c6ef a4be
00000320: cd37 b53e 2179 ab3e de43 f03e 9e4d 34bd
00000330: 92dc 833e 3cfc f93e e5f9 c2be b0f8 403e
00000340: 10ee cb3d a58b 36be 5308 cf3b 50dc 683e
00000350: 2a11 40bd 7309 1bbe 52a5 203d 3552 21be
00000360: f442 6e3e 0f4a e8bd 39c1 ffbd 88b1 aabd
00000370: 257b d03d f1e8 c83d eb44 7d3e 1dbb 2d3e
00000380: 9d11 ec3d 5ce7 5d3e 76f9 86be 00bf f3bd
00000390: a141 443e 0d27 8f3e 21c0 f93e af91 84be
000003a0: 0aa0 163f 2077 eb3e 960d 193e 4ea4 acbe
000003b0: 17b7 77be 08a0 683d 587d cbbe bdd3 953e
000003c0: 2b6b 5f3e eca3 ca3d 60fe 47bd 0e11 03bd
000003d0: eeda 273e d4b6 d33d d6ee 1b3e 8523 79be
000003e0: e7d5 893d 88ad 04be 6ad8 afbc 0dcb 043c
000003f0: ba64 9e3e 2d72 713d 49e8 033c 55ce 64bc

lstm.bias_ih_l1 f4 [64]
0.053036228 -0.15137361 0.13716972 0.22155064 0.054431118 0.10750157 0.041969568 0.22728334
0.26238018 0.29046273 -0.026295137 0.0110396445 0.28474978 -0.23560172 0.40005073 -0.08446541
-0.17429246 -0.07294549 -0.1641103 -0.13563839 -0.047938712 0.11305008 -0.28950992 0.1795986
0.032140624 0.063670576 -0.11355578 0.12119298 -0.17208616 0.2125488 0.00019975226 0.0409332
0.0097837625 0.051889196 -0.062246423 -0.038021103 0.16512543 0.15428434 -0.025239103 -0.07429284
-0.17623256 0.15283185 0.1687751 -0.1396291 0.053559355 0.22936018 0.049227 0.06619176
0.3173387 -0.0053910716 -0.18073642 -0.11608891 -0.06769935 0.28016227 0.33271125 0.2399209
-0.06796124 0.14586726 -0.121469766 0.16622958 0.27051204 -0.23399368 0.3783042 0.055172566
00000000: 843c 593d af01 1bbe 3876 0c3e 2cde 623e
00000010: 2af3 5e3d c829 dc3d 48e8 2b3d f7bc 683e
00000020: b256 863e 88b7 943e e668 d7bc a0df 343c
00000030: b9ca 913e 9441 71be 73d3 cc3e 33fc acbd
00000040: b979 32be 7264 95bd 880c 28be cae4 0abe
00000050: 625b 44bd cd86 e73d a53a 94be b2e8 373e
00000060: e3a5 033d b865 823d ef8f e8bd 0634 f83d
00000070: 5b37 30be 65a6 593e 9774 5139 92a9 273d
00000080: 134c 203c c489 543d 1bf6 7ebd 04bc 1bbd
00000090: a416 293e b7fc 1d3e 3cc2 cebc d826 98bd
000000a0: 4f76 34be f47f 1c3e 61d3 2c3e eefa 0ebe
000000b0: 0e61 5b3d 65dd 6a3e 40a2 493d 8c8f 873d
000000c0: 387a a23e 96a7 b0bb f812 39be 06c0 edbd
000000d0: f5a5 8abd 6e71 8f3e 2159 aa3e d3ad 753e
000000e0: 432f 8bbd 3a5e 153e 24c5 f8bd 1638 2a3e
000000f0: 8e80 8a3e 0a9c 6fbe 17b1 c13e a1fc 613d

lstm.bias_hh_l1 f4 [64]
0.026283562 0.096464284 0.109885186 0.102794036 -0.051043835 0.05891913 0.14542122 -0.033734325
0.35465065 0.0038050371 -0.0022895976 -0.07975275 0.45584518 0.19499613 0.5630634 0.26814595
-0.26709422 -0.056479324 -0.03332006 0.03907142 0.05012496 0.12114909 0.057952963 0.017909665
-0.1844829 0.090955496 0.1968592 -0.22855236 -0.10022867 0.00044664205 -0.20949306 0.00560053
-0.030027838 0.043761384 -0.20474899 -0.034579966 0.115607984 0.05957113 0.1274549 -0.2608777
-0.15235928 -0.06344967 0.107953504 -0.15818769 -0.09113014 -0.040751744 0.07133241 -0.0033231585
0.1719113 -0.079930015 0.18571025 0.07505121 0.11299705 0.13796557 0.20454212 0.03131659
-0.12140448 0.066960774 -0.041040704 0.22162774 0.22926755 -0.2560846 0.109260045 0.016684366
00000000: a050 d73c 118f c53d 7c0b e13d ae85 d23d
00000010: 5713 51bd 3055 713d 4de9 143e 012d 0abd
00000020: c594 b53e ee5d 793b 130d 16bb 6955 a3bd
00000030: 8a64 e93e 11ad 473e ec24 103f 6d4a 893e
00000040: 93c0 88be dd56 67bd 9e7a 08bd 5a09 203d
00000050: d44f 4d3d 041d f83d 1660 6d3d 4ab7 923c
00000060: 16e9 3cbe e046 ba3d 7595 493e a109 6abe
00000070: b044 cdbd 482b ea39 5985 56be a784 b73b
00000080: f1fc f5bc 233f 333d b8a9 51be b9a3 0dbd
00000090: e1c3 ec3d db00 743d 8a83 023e c391 85be
000000a0: 1204 1cbe e7f1 81bd ba16 dd3d f4fb 21be
000000b0: 70a2 babd 4deb 26bd ba16 923d 59c9 59bb
000000c0: 8409 303e 59b2 a3bd d42a 3e3e 73b4 993d
000000d0: ff6a e73d d946 0d3e 7d73 513e d345 003d
000000e0: e9a2 f8bd bb22 893d 4c1a 28bd 62f2 623e
000000f0: 1dc5 6a3e 851d 83be bbc3 df3d a7ad 883c

fc.weight f4 [2, 16]
0.2795324 -0.08989004 0.19535154 0.16676377 -0.057405174 0.21193613 -0.31845397 -0.05336899
0.04045499 0.2650191 0.17923547 -0.14776517 0.20639111 -0.18626028 -0.52025723 0.3204132
0.30931228 0.1313489 -0.22799091 -0.30851012 -0.3125109 0.1923659 -0.21085162 -0.22930685
-0.1592602 0.030737702 -0.017721815 0.12963419 0.3897118 0.21875285 -0.4657322 0.01999228
00000000: df1e 8f3e 4518 b8bd 3c0a 483e 1fc4 2a3e
00000010: b021 6bbd c905 593e 660c a3be 7199 5abd
00000020: 22b4 253d 95b0 873e 8189 373e c14f 17be
00000030: 3158 533e 04bb 3ebe 942f 05bf 330d a43e
00000040: 2e5e 9e3e 5380 063e 7376 69be 0af5 9dbe
00000050: 6e01 a0be 91fb 443e 7de9 57be 6acf 6abe
00000060: 1b15 23be a2cd fb3c 572d 91bc d3be 043e
00000070: 4e88 c73e bf00 603e 7374 eebe dac6 a33c

fc.bias f4 [2]
0.09995882 0.0818834
00000000: 36b7 cc3d 7cb2 a73d
