trained_lstm_model.pth (torch, 2273 bytes, 6 tensors)

lstm.weight_ih_l0 f4 [8, 1]
2.670867 0.03025185 -2.5384974 0.3026999 -2.553121 -0.75237936 1.5315417 1.9472898
00000000: 7cef 2a40 bad2 f73c be76 22c0 7bfb 9a3e
00000010: 5666 23c0 ef9b 40bf 8f09 c43f cb40 f93f

lstm.weight_hh_l0 f4 [8, 2]
-2.3472874 1.2776273 -1.705849 1.4262564 -3.9765341 9.449648 -2.7990043 1.5888817
-1.0705985 -1.8359829 7.1554513 -0.99937123 -6.507798 3.581223 0.26893806 -2.2005851
00000000: f539 16c0 4b89 a33f 4359 dabf 928f b63f
00000010: 897f 7ec0 c231 1741 e322 33c0 7a60 cb3f
00000020: 5f09 89bf 7d01 ebbf 75f9 e440 cbd6 7fbf
00000030: e23f d0c0 c232 6540 40b2 893e 63d6 0cc0

lstm.bias_ih_l0 f4 [8]
3.4537437 -0.7075621 -0.16830213 0.32293978 -0.1353355 -0.5418947 1.1125419 -0.7328383
00000000: 230a 5d40 ca22 35bf 6557 2cbe 5d58 a53e
00000010: 6495 0abe 9cb9 0abf c667 8e3f 4a9b 3bbf

lstm.bias_hh_l0 f4 [8]
3.4253526 -0.37881744 0.44417906 0.3117605 0.35229975 -0.97816926 0.71375036 -0.2603248
00000000: fa38 5b40 5cf4 c1be 706b e33e 129f 9f3e
00000010: a260 b43e 4d69 7abf 58b8 363f 4b49 85be

fc.weight f4 [2, 2]
-0.9980661 -0.5499567 -1.6471348 0.112279855
00000000: 4381 7fbf f6c9 0cbf 50d5 d2bf fbf2 e53d

fc.bias f4 [2]
0.119037606 0.2539631
00000000: fdc9 f33d 7407 823e
