trained_lstm_model.pth (torch, 16289 bytes, 10 tensors)

lstm.weight_ih_l0 f4 [64, 1]
0	0x3f427bd4	0.75970197
1	0x3ef1405d	0.47119418
2	0x3f64368c	0.8914573
3	0xbcab0a56	-0.020878952
4	0xbe2a0333	-0.16602783
5	0x3dac085c	0.08400032
6	0x3ea4eafe	0.32210535
7	0x3e9faeb3	0.31187972
8	0xbf03634f	-0.5132341
9	0x3e957442	0.2919026
10	0x3f337e7d	0.7011488
11	0x3f2bd439	0.671207
12	0x3ec188b0	0.37799597
13	0xbf0d0de6	-0.5509933
14	0x3efcdf81	0.4938927
15	0x3ef11139	0.47083452
16	0x3f0a206e	0.53955734
17	0x3d76e1fe	0.060274117
18	0x3fa0a0ba	1.254905
19	0x3da74d87	0.08169084
20	0x3dc607e8	0.09669477
21	0x3f6344a6	0.88776624
22	0x3ce12f92	0.027488504
23	0xbe9e7497	-0.30948326
24	0xbd10bd86	-0.035336994
25	0x3eddb8c9	0.43305042
26	0x3f28ec3f	0.6598548
27	0x3eb66ac1	0.35628322
28	0xbf1a242f	-0.6021146
29	0xbd00e7ed	-0.03147118
30	0x3d74eff5	0.059799153
31	0x3f464e9c	0.774637
32	0xc0172557	-2.361654
33	0x3db0b307	0.08627897
34	0xbfaba4a1	-1.3409616
35	0x3ecfcf51	0.40587857
36	0x3de406b9	0.11134095
37	0xbf38fcd9	-0.72260815
38	0x3fe9922c	1.8247733
39	0x3f90c8df	1.1311301
40	0xbe044209	-0.12915815
41	0x3ec556d9	0.38542822
42	0xbf0320d5	-0.5122197
43	0xbf6d0e1e	-0.92599666
44	0x3f3c6257	0.73587555
45	0xbeb572c9	-0.35439137
46	0x3f7ec4e3	0.99519175
47	0x3f316773	0.69298476
48	0x3eec1eb3	0.46117172
49	0x3f0afac9	0.5428892
50	0x3f807b7c	1.0037684
51	0x3f6f2681	0.9341813
52	0x3e853523	0.26017103
53	0x3f99b1e0	1.2007408
54	0x3f0b2525	0.54353553
55	0x3eff4e7a	0.4986456
56	0xbe4222d7	-0.18958603
57	0x3f201367	0.62529606
58	0x3f490b33	0.78532714
59	0x3f0eccfa	0.5578152
60	0x3fbad0a6	1.4594924
61	0xbdd3af64	-0.103361875
62	0x3f1d83d3	0.6152927
63	0x3f48680e	0.78283775

lstm.weight_hh_l0 f4 [64, 16]
0	0x3e86e86a	0.26349193
1	0xbee419d8	-0.44550967
2	0x3f154f60	0.5832424
3	0x40023e1a	2.0350404
4	0x3ff06c9a	1.8783143
5	0xbd46c515	-0.048527796
6	0x3e3a211c	0.18176693
7	0xbdd2cea3	-0.10293319
8	0xbf93924a	-1.1529019
9	0x3eb2fbbe	0.3495769
10	0xbec8ef75	-0.3924519
11	0xbc145ac4	-0.009054843
12	0xbf6b8c24	-0.9201071
13	0x3f3fc6bf	0.7491264
14	0x3e0b2467	0.13588105
15	0x3ef25410	0.4732976
16	0xbde4812b	-0.11157449
17	0xbda2a1b5	-0.079409994
18	0xbe60e9e0	-0.21964216
19	0x3d6b2f8c	0.05741839
20	0xbe2bdbe5	-0.16783102
21	0x3ea24123	0.3169032
22	0x3e82e346	0.2556402
23	0x3f968ca7	1.1761674
24	0xbeeaeb3c	-0.45882595
25	0x3dada1d7	0.08478134
26	0xbe0ebb39	-0.13938607
27	0xbe9182ba	-0.2842005
28	0x3ed19b4d	0.40938798
29	0xbe1de854	-0.15420657
30	0x3ecaa881	0.39581683
31	0xbdb6edc2	-0.089320675
32	0xbe292f19	-0.16521873
33	0xbf2ff2a5	-0.6872962
34	0xbf8dba3f	-1.1072463
35	0x400732cf	2.112476
36	0x3fee47c3	1.861565
37	0xbf0427f3	-0.5162346
38	0x3e431328	0.19050276
39	0xbe47e94d	-0.19522591
40	0x3efa9d70	0.4894824
41	0x3ef8f8eb	0.4862741
42	0xbe78ae85	-0.24285324
43	0x3e83971e	0.2570123
44	0xbfa5da01	-1.2957155
45	0x3fc26142	1.5185931
46	0x3df9ee1d	0.1220362
47	0x3f1b474f	0.60655683
48	0x3e8f697f	0.28010175
49	0x3ef366cf	0.47539374
50	0xbf17acd8	-0.59248114
51	0x3ef6ad65	0.48179165
52	0x3f89c5ae	1.0763452
53	0x3ee3b31b	0.44472584
54	0xbee7e285	-0.45290008
55	0xbe94c823	-0.29058942
56	0xbeecb7e2	-0.4623404
57	0xbf0cc3cc	-0.5498626
58	0x3f040d42	0.5158273
59	0x3f02e5a0	0.5113163
60	0xbf730f6a	-0.94945395
61	0x3f71b24a	0.9441267
62	0xbec9b9c3	-0.39399537
63	0xbe2b64b8	-0.1673764
64	0x3e79a142	0.24377921
65	0xbed2d5e4	-0.4117881
66	0x3fb34535	1.4005495
67	0xbed6b716	-0.41936558
68	0xbe3b1389	-0.18269171
69	0x3e926f19	0.28600386
70	0x3ebd3a9d	0.3695878
71	0xbf7df7d8	-0.99206305
72	0xbed722b1	-0.42018655
73	0x3e33eba1	0.17570354
74	0xbe758515	-0.23976548
75	0xbe292332	-0.16517332
76	0x3ef0ad3a	0.4700716
77	0xbdcf7759	-0.10130186
78	0xbf15594d	-0.5833939
79	0xbf186724	-0.5953238
80	0x3f105020	0.5637226
81	0x3e053e20	0.1301198
82	0xbf98bc9d	-1.193256
83	0x3e93815b	0.28809628
84	0x3fd90778	1.6955404
85	0x3e08b37d	0.1334972
86	0xbf1a8002	-0.60351574
87	0x3eb10895	0.3457686
88	0xbf0d90e3	-0.55299205
89	0xbe5cbac6	-0.21555623
90	0x3eb8dd68	0.3610642
91	0x3e97db3a	0.29659444
92	0xbefb2a4e	-0.49055713
93	0x3f376a17	0.71646255
94	0x3e37abe2	0.17936662
95	0x3eda9c89	0.42697552
96	0xbecf99d4	-0.4054705
97	0xbd9a7325	-0.07541493
98	0xbec5e93d	-0.3865451
99	0x4005d725	2.0912564
100	0x4006b152	2.1045728
101	0xbe6dd5fa	-0.23226157
102	0x3d7d0f8a	0.061782397
103	0x3eb3604b	0.35034403
104	0xbf563428	-0.83673334
105	0x3ea35dc8	0.31907487
106	0xbc604e44	-0.013690535
107	0x3d614a82	0.055002697
108	0xbf8fcc57	-1.1234235
109	0x3f74a846	0.95569265
110	0x3d85ffe1	0.06542946
111	0x3f17b7a6	0.592646
112	0xbf1e63af	-0.61870855
113	0xbef72f83	-0.48278436
114	0xbf42689c	-0.7594087
115	0x3f327779	0.6971355
116	0x3f9bdcf7	1.2176808
117	0xbf0e6fce	-0.5563935
118	0x3ed07daa	0.40720874
119	0xbeac6a4e	-0.33674854
120	0x3eecfd3d	0.46286955
121	0x3f336909	0.70082146
122	0xbf28a9a5	-0.65883857
123	0xbf0896fc	-0.53355384
124	0xbf63591f	-0.88807863
125	0x3f0d2175	0.55129176
126	0x3eb541d3	0.35401782
127	0x3f33d07f	0.70240015
128	0x3eea070c	0.457085
129	0xbeb167b9	-0.34649447
130	0x3f3a7fb8	0.72851133
131	0x3e9aedfe	0.302597
132	0xbf5b9b47	-0.8578381
133	0x3ed7e84c	0.42169416
134	0xbec359e6	-0.38154525
135	0x3ec2b9ed	0.38032475
136	0xbee68a22	-0.45027262
137	0x3d7a3c30	0.061092556
138	0x3e06a4e0	0.13148832
139	0x3e25940c	0.16169757
140	0x3eb8c234	0.36085665
141	0xbe1e75e6	-0.15474662
142	0x3e828ca9	0.2549794
143	0x3cccc4d2	0.024996195
144	0xbe2750f6	-0.16339478
145	0xbe49f694	-0.19722968
146	0x3e890419	0.2676094
147	0xbde45e41	-0.1115079
148	0xbdb95376	-0.09049122
149	0xbeb5c066	-0.3549835
150	0xbe9c8c39	-0.3057573
151	0x3ecdef3b	0.4022158
152	0xbd073356	-0.033007942
153	0xbd0520b6	-0.0325019
154	0x3c152441	0.009102882
155	0xbec8e57f	-0.39237592
156	0x3dc6d60a	0.097087935
157	0xbe8b5e55	-0.27220407
158	0xbe99f751	-0.300715
159	0xbd29f901	-0.041497234
160	0x3e36ce0b	0.17852037
161	0xbe7ea0f1	-0.24866082
162	0xbec4532c	-0.38344705
163	0x3e16bb29	0.14719833
164	0xbe8eeb82	-0.27914053
165	0x3e135d9a	0.14391175
166	0xbe80702c	-0.2508558
167	0x3e9219cd	0.2853531
168	0xbc6628a8	-0.014047779
169	0xbe3ff1e7	-0.18744622
170	0xbd1ea408	-0.03873065
171	0x3e0ee9d9	0.13956393
172	0x3d86b988	0.06578356
173	0x3e056b78	0.13029277
174	0x3e492e8f	0.19646667
175	0xbd5b30fb	-0.05351351
176	0xbf367183	-0.71266955
177	0xbd6e6ed8	-0.058211178
178	0xbd9903f7	-0.07471459
179	0x3f8f9341	1.1216813
180	0x3fa82da0	1.3138924
181	0xbf819bf2	-1.0125716
182	0x3f02c857	0.51086944
183	0xbd6c275b	-0.05765472
184	0x3e47721f	0.19477127
185	0x3ee1c047	0.44092008
186	0xbeb212df	-0.34780023
187	0xbedb71bb	-0.42860207
188	0xbf28a80d	-0.65881425
189	0x3e950513	0.29105434
190	0x3e2b9089	0.16754355
191	0x3f603b79	0.8759075
192	0xbfa57c7a	-1.2928612
193	0xbf4633dd	-0.7742289
194	0xc0134b79	-2.3014815
195	0x3f95b82c	1.169683
196	0xbd064d65	-0.032788653
197	0xbec51b48	-0.38497376
198	0x3f529ac3	0.822674
199	0x3e4a178b	0.19735543
200	0xbe0cf572	-0.13765505
201	0x3f55f08a	0.8357016
202	0xbf4b0504	-0.7930453
203	0xbe9d9079	-0.30774286
204	0xbf1c164b	-0.60971516
205	0x3f4d3ba5	0.80169135
206	0x3f2024ef	0.62556356
207	0x3f63f5d4	0.8904698
208	0xbe501d74	-0.20323735
209	0x3cd54fb1	0.026038976
210	0xbf80110c	-1.0005202
211	0x3e776375	0.24159034
212	0x3e34e4ec	0.17665452
213	0x3e0105d2	0.12599877
214	0x3e260f0d	0.16216679
215	0x3f4892a3	0.7834875
216	0xbfa09963	-1.254681
217	0x3d1d3590	0.03838116
218	0x3dd403a3	0.10352256
219	0xbaae0d4b	-0.0013279108
220	0xbecb048c	-0.39651906
221	0x3e4da2cd	0.20081635
222	0x3e920835	0.28521886
223	0x3f3cad51	0.7370196
224	0xbf27ea44	-0.65591836
225	0x3e5917e3	0.21200518
226	0xbf88822a	-1.0664723
227	0x3f819c8d	1.01259
228	0x3fc3cb0c	1.529634
229	0xbf13fd43	-0.5780832
230	0xbc1ca9d2	-0.009561973
231	0xbdd2603d	-0.10272262
232	0x3f00494b	0.50111836
233	0x3e7ae1ab	0.24500148
234	0x3dd7ec3e	0.105431065
235	0xbe801b83	-0.2502099
236	0xbf857f2f	-1.0429438
237	0x3e97e716	0.29668492
238	0x3da1f58c	0.079081625
239	0x3e02651c	0.12733883
240	0xbe1e9a44	-0.15488535
241	0xbe19b301	-0.15009691
242	0xbef3809b	-0.47559056
243	0x3ecac55b	0.39603695
244	0x3f13bc6f	0.577094
245	0xbecbf575	-0.39835706
246	0xbe81cc6d	-0.25351277
247	0xbeeb2543	-0.45926866
248	0xbf00ccca	-0.50312483
249	0xbeb59186	-0.35462588
250	0x3e185fa1	0.1488023
251	0x3e051608	0.12996686
252	0xbf8cb00e	-1.0991228
253	0xbe35a415	-0.17738374
254	0xbf443ca6	-0.7665504
255	0xbe93879c	-0.288144

lstm.bias_ih_l0 f4 [64]
0	0x3f833d6e	1.0253122
1	0x3dffb48f	0.12485611
2	0x3f861f4b	1.04783
3	0xbd1db26c	-0.038500234
4	0x3ec9cebb	0.39415535
5	0xbe2b5daf	-0.16734956
6	0x3efae114	0.48999846
7	0x3f3109ec	0.69155765
8	0x3db133a6	0.08652429
9	0x3e056c4d	0.13029595
10	0xbe96f390	-0.29482698
11	0x3ea84c37	0.32870647
12	0x3ea3640c	0.31912267
13	0xbeaf8eb2	-0.34288555
14	0x3eba00a8	0.36328626
15	0xbe34174d	-0.17587014
16	0xbeb8f514	-0.3612448
17	0xbd94e13b	-0.07269522
18	0xbf0cc983	-0.5499498
19	0xbdb81f41	-0.08990336
20	0x3e8291d7	0.25501892
21	0x3c13a709	0.009011992
22	0xbd95dfb8	-0.073180616
23	0xbd788204	-0.060670868
24	0x3d3f42ee	0.04669469
25	0xbcac1ea6	-0.021010708
26	0x3decb81f	0.11558556
27	0xbd9e6b8d	-0.077353574
28	0xbca2fcd9	-0.019895958
29	0x3e2ba46a	0.16761938
30	0xbd243092	-0.040085383
31	0xbe9c2a72	-0.30501133
32	0x3e543a1d	0.20725293
33	0xbd955f18	-0.07293528
34	0xbe1f0765	-0.15530165
35	0x3e347c2e	0.17625496
36	0x3e8f0707	0.2793505
37	0xbe05cc0f	-0.13066123
38	0xbe161681	-0.14657022
39	0xbe650fbe	-0.22369286
40	0x3e1f7260	0.15570974
41	0x3cce289d	0.02516585
42	0x3d0577d7	0.03258499
43	0x3d39e247	0.04538181
44	0xbe7dc95a	-0.24783841
45	0x3dd4a6f6	0.10383408
46	0xbe69ad96	-0.22820124
47	0x3de9b11e	0.114107355
48	0x3f2d760e	0.6775826
49	0xbe34e8b2	-0.17666891
50	0x3f4e42ab	0.8057048
51	0xbe113529	-0.14180435
52	0x3f1c0d80	0.609581
53	0x3ed2eb0f	0.4119496
54	0x3f2025df	0.62557787
55	0x3f2ebcd4	0.6825688
56	0xbca61e51	-0.020278128
57	0x3e852a3e	0.2600879
58	0x3d78c02c	0.060730144
59	0x3ea0c6ff	0.31401822
60	0x3f486ac5	0.7828792
61	0x3e629bd7	0.2212976
62	0x3ef85f7f	0.48510358
63	0x3e0d1b10	0.13779855

lstm.bias_hh_l0 f4 [64]
0	0x3f56faad	0.8397625
1	0xbe062c3b	-0.1310281
2	0x3f477038	0.7790561
3	0x3e853526	0.26017112
4	0x3eaa06ce	0.33208317
5	0x3d1db2e9	0.0385007
6	0x3f58a37d	0.84624463
7	0x3f1e9053	0.6193897
8	0xbdfe9b2b	-0.1243194
9	0xbdd466a5	-0.103711404
10	0xbe9e43fc	-0.30911243
11	0x3f320440	0.69537735
12	0x3ea32731	0.31865838
13	0xbe468460	-0.19386435
14	0x3f14bf48	0.5810437
15	0xbe0a845d	-0.13527055
16	0xbf16d9a8	-0.5892587
17	0xbe666cb9	-0.22502412
18	0xbf1d35ea	-0.6141039
19	0x3e66d77a	0.22543135
20	0x3e46f773	0.19430332
21	0x3e2c2a3b	0.16812985
22	0xbeed1e5e	-0.4631223
23	0xbe6ff20f	-0.23432182
24	0xbc8f7c88	-0.017515436
25	0xbdf99b77	-0.12187856
26	0xbe1b7b5a	-0.15183774
27	0xbe3584c0	-0.17726421
28	0xbd9a05e1	-0.075206526
29	0xbe52a33c	-0.20570081
30	0xbc5859b7	-0.013204983
31	0xbe751b47	-0.23936187
32	0x3d63f788	0.055655986
33	0xbd1e7984	-0.038690105
34	0x3ea2774f	0.3173165
35	0x3da96cfd	0.08272741
36	0x3de90e60	0.11379695
37	0x3dd487f2	0.10377492
38	0xbe8fc465	-0.28079525
39	0xbd4639eb	-0.04839508
40	0x3e2b233c	0.1671266
41	0x3e23b773	0.15987949
42	0xbc767072	-0.0150414575
43	0x3deccb82	0.115622535
44	0xbe007fb9	-0.12548722
45	0xbd6ec051	-0.058288876
46	0x3e1c9c76	0.1529406
47	0x3c2ee654	0.010675032
48	0x3f474535	0.77839977
49	0xbe319eec	-0.1734578
50	0x3f60299b	0.87563485
51	0x3ca80d76	0.020514231
52	0x3ed075c3	0.40714845
53	0x3e2169b4	0.15762979
54	0x3f37e1e6	0.7182907
55	0x3ee0288f	0.43780944
56	0xbe6f5256	-0.23371252
57	0xbda97028	-0.08273345
58	0xbe389e6f	-0.18029188
59	0x3f3bb6ab	0.73325604
60	0x3f1ca598	0.61190176
61	0x3d067bf1	0.032833043
62	0x3e58fc95	0.21190102
63	0x3e00e0d9	0.12585773

lstm.weight_ih_l1 f4 [64, 16]
0	0x3e5eb802	0.21749881
1	0xbe8d6502	-0.27616125
2	0xbf0bebc9	-0.54656655
3	0x3e1eae35	0.15496142
4	0x3e881a26	0.2658245
5	0xbd12914a	-0.03578309
6	0xbf21d524	-0.6321585
7	0xbe74c114	-0.23901778
8	0xbd02a260	-0.031893134
9	0x3c5d4141	0.013504327
10	0x3e8a2b88	0.26986337
11	0x3e7a5b8c	0.24448985
12	0xbeeb7850	-0.4599023
13	0x3e33e7a0	0.17568827
14	0xbc90a0cb	-0.017654797
15	0x3d066af6	0.03281685
16	0xbe4fd443	-0.20295815
17	0x3d047afa	0.032343842
18	0xbfb1d36f	-1.389265
19	0x3ec122dc	0.37721908
20	0x3ef71bd9	0.48263434
21	0xbeb4d862	-0.35321337
22	0x3e6485c4	0.22316653
23	0x3e109506	0.14119348
24	0x3e82a052	0.2551294
25	0x3df1fc7c	0.11815736
26	0x3d865184	0.065585166
27	0xbe2f0715	-0.17092545
28	0x3e647531	0.2231033
29	0xbe033fbe	-0.12817284
30	0x3e5b3325	0.21406229
31	0xbdfa725c	-0.122288436
32	0xc03db156	-2.9639487
33	0xbea59a62	-0.32344347
34	0xc0574379	-3.3634932
35	0x3f2b3534	0.66878057
36	0x3d519d33	0.051175307
37	0xbf2280d3	-0.6347782
38	0x4033f144	2.8116007
39	0x3fb50c96	1.4144466
40	0x3e681ed0	0.22668004
41	0x3ea82aaa	0.3284505
42	0xbd3aee27	-0.045637276
43	0xbfbe501f	-1.4868201
44	0x3e5c4a64	0.21512753
45	0xbe08830f	-0.13331245
46	0x3fda058b	1.7032942
47	0x3e951882	0.2912026
48	0x3daaa69a	0.08332558
49	0xbcbe670a	-0.023242492
50	0x3eba2518	0.36356425
51	0xbf0385ca	-0.5137602
52	0xbd266e49	-0.04063252
53	0x3e3d1a16	0.18466982
54	0x3e47bce6	0.19505653
55	0x3d39d075	0.045364816
56	0x3ea26232	0.31715542
57	0x3e8e9a73	0.2785221
58	0xbe89f80d	-0.2694706
59	0x3e7bb375	0.24580176
60	0x3e9a823a	0.3017748
61	0xbe1426ec	-0.14467973
62	0xbebe2145	-0.37134758
63	0xbea68a8e	-0.32527584
64	0xbf14c6a6	-0.58115613
65	0xbcffd3f4	-0.031228997
66	0xbff474fb	-1.90982
67	0xbe63a9c1	-0.22232725
68	0xbefd7706	-0.4950487
69	0xbf23e625	-0.6402305
70	0x3f8146e1	1.0099756
71	0x3fa11c33	1.2586731
72	0x3e0d6d23	0.13811164
73	0x3d8701a0	0.06592107
74	0xbd8f0deb	-0.069850765
75	0xbf54a58a	-0.8306509
76	0x3e9ffd15	0.31247774
77	0xbe2a7246	-0.16645154
78	0x3f514a8c	0.81754375
79	0x3e6bee23	0.2304006
80	0x3ecfba44	0.40571797
81	0xbea43167	-0.3206894
82	0xbf0c6ee7	-0.54856724
83	0x3f4e366d	0.805518
84	0x3ee83cbf	0.45358846
85	0x3dd125fd	0.10212324
86	0xbecaafd5	-0.39587274
87	0x3ea7ff3d	0.3281192
88	0xbe1c0aef	-0.15238546
89	0x3ec99f29	0.39379242
90	0xbe875ec7	-0.26439497
91	0xbe26699c	-0.16251224
92	0x3e816e14	0.25279295
93	0x3ebfbbef	0.3744807
94	0x3d67ef13	0.056624483
95	0x3edf155c	0.43570983
96	0x3ef51104	0.47864544
97	0xbf5187c9	-0.81847817
98	0xbda6b665	-0.08140258
99	0x3d5fa78e	0.054603152
100	0xbea2dd18	-0.31809306
101	0x3eca049d	0.39456645
102	0x3d09ae80	0.03361368
103	0xbeb551bb	-0.35413918
104	0x3eb1b1ce	0.34705967
105	0x3deae540	0.11469507
106	0xbe06d070	-0.1316545
107	0xbe2ae1fd	-0.1668777
108	0x3f50e33c	0.8159673
109	0xbc903e4a	-0.017607827
110	0xbe87df9b	-0.26537785
111	0xbef10a4a	-0.47078162
112	0xbd90a7eb	-0.07063278
113	0x3e28aae0	0.16471434
114	0x3d2cfafe	0.042231552
115	0xbe0bd2ca	-0.13654628
116	0xbdeb6f99	-0.11495895
117	0x3eda7bb9	0.42672518
118	0xbc58985e	-0.013219921
119	0x3eab60f6	0.33472413
120	0xbe9997b0	-0.2999854
121	0xbd18bc6f	-0.03728908
122	0xbd8b5fa8	-0.06805354
123	0x3dc10289	0.09424312
124	0xbeb53744	-0.35393727
125	0x3f13f2e5	0.577925
126	0x3ec58102	0.38574988
127	0x3e028a33	0.12748031
128	0xbe670f23	-0.22564368
129	0xbe47545e	-0.19465777
130	0xbffae573	-1.9601272
131	0x3eb1b23e	0.347063
132	0x3efa48f1	0.48883775
133	0xbf29fc00	-0.66400146
134	0x3f121c6d	0.57074624
135	0x3fa938ed	1.3220497
136	0xbed1db70	-0.4098773
137	0x3f203984	0.6258776
138	0xbce1aca9	-0.027548151
139	0xbec56c97	-0.3855941
140	0xbe48add4	-0.1959756
141	0x3f547b45	0.83000594
142	0x3f3ad0d6	0.7297491
143	0x3f684182	0.90724957
144	0xbee5ef70	-0.4490924
145	0x3ed0c695	0.40776506
146	0xc02adde5	-2.6697934
147	0x3f690de5	0.91036826
148	0x3fb422c3	1.4073108
149	0xbf29ec1c	-0.663759
150	0x3f905071	1.1274549
151	0x3fa2ae04	1.2709355
152	0xbf1765b5	-0.5913957
153	0x3a96c5ce	0.0011503042
154	0x3ebb0210	0.3652501
155	0xbed710fd	-0.4200515
156	0xbec80506	-0.39066333
157	0x3f53eb1f	0.8278064
158	0xbecb378e	-0.39690822
159	0x3fc52075	1.540053
160	0x3e3404b9	0.17579927
161	0x3e4619f6	0.19345841
162	0xbeed0f40	-0.46300697
163	0xbb92c4e5	-0.004479038
164	0x3e76ad83	0.24089627
165	0xbecad451	-0.3961511
166	0x3d6ad8f6	0.057335816
167	0xbb611db1	-0.0034349973
168	0x3e2cd5ee	0.16878483
169	0x3e38b6ba	0.18038455
170	0xbd4201d5	-0.04736503
171	0xbe53e0fe	-0.20691296
172	0xbcc83ea2	-0.024443928
173	0xbe928db4	-0.28623736
174	0x3d4d3978	0.050103635
175	0x3db3b9bd	0.08775661
176	0x3f0277e8	0.5096421
177	0x3e265795	0.16244347
178	0x3f6adc3c	0.917423
179	0xbcc4c378	-0.024018988
180	0x3e1592f5	0.14606841
181	0xbd60dd11	-0.054898325
182	0xbe93b89b	-0.2885178
183	0xbfc1f693	-1.5153373
184	0xbe0a4731	-0.1350372
185	0x3ce2208e	0.027603414
186	0x3ec4a4ad	0.38406888
187	0x3f1049f0	0.5636282
188	0xbea39242	-0.31947523
189	0xbeea5c1c	-0.457734
190	0xbf8d19c9	-1.1023494
191	0xbecd57be	-0.40106004
192	0xbe432a45	-0.19059093
193	0x3e5459f8	0.20737445
194	0x3db4260f	0.087963216
195	0xbe87faff	-0.26558682
196	0xbf006bfd	-0.5016478
197	0x3d989b96	0.07451551
198	0x3f74d167	0.9563202
199	0xbe728d95	-0.23686822
200	0xbd4566e1	-0.048193816
201	0x3e2a8edb	0.16656058
202	0x3e2f3320	0.17109346
203	0xbea67ba1	-0.32516196
204	0xbd94bf0e	-0.07263003
205	0x3d0f1650	0.03493339
206	0x3e843157	0.25818893
207	0xbe9e03cd	-0.30862275
208	0xbd299aaa	-0.041407265
209	0xbe027cd6	-0.12742934
210	0xbe5dd81f	-0.21664475
211	0xbea79854	-0.32733405
212	0xbd0553f6	-0.032550775
213	0xbe09680e	-0.134186
214	0x3eff9011	0.499146
215	0x3edf7e16	0.43650883
216	0xbe1f8714	-0.15578872
217	0x3d83871d	0.06422255
218	0xbca1b23a	-0.019738305
219	0xbf2fc3ec	-0.6865833
220	0x3e8bcf79	0.27306727
221	0xbeafe18c	-0.34351766
222	0x3eb2182b	0.34784064
223	0x3e1b3b23	0.15159278
224	0xbf0374b4	-0.5134995
225	0xbe5cf193	-0.21576528
226	0xbf73e134	-0.9526551
227	0x3f152d7e	0.5827254
228	0xbea2b8e8	-0.31781697
229	0xbe8a2852	-0.26983887
230	0x3f202e58	0.62570715
231	0x3f51fff6	0.8203119
232	0xbe1c94d9	-0.15291156
233	0x3ef16393	0.47146282
234	0xbe8317bd	-0.25604048
235	0xbec735f1	-0.38908342
236	0x3ea24589	0.31693676
237	0xbcf99a45	-0.03046907
238	0x3f4a84eb	0.79109067
239	0x3e703c87	0.2346059
240	0x3d8a3cb6	0.06749861
241	0x3e4abad0	0.19797826
242	0x3e391be1	0.18077041
243	0xbdc8eabb	-0.09810396
244	0xbed467d7	-0.41485474
245	0xbe94d666	-0.29069823
246	0xbc2c5055	-0.0105171995
247	0x3e18109c	0.14850086
248	0x3d54a662	0.051916488
249	0x3ddcce8f	0.107815854
250	0xbdf8687e	-0.12129305
251	0x3df90860	0.121598005
252	0x3ea31abf	0.31856343
253	0xbda3ae91	-0.0799228
254	0x3eafe26a	0.34352428
255	0xbe52a59c	-0.20570987

lstm.weight_hh_l1 f4 [64, 16]
0	0xbe6910e5	-0.22760351
1	0x3e312ab2	0.17301443
2	0x3e14b31a	0.14521447
3	0xbe1c3dcb	-0.15257947
4	0x3d3f0fd9	0.046645973
5	0xbe632504	-0.22182089
6	0xbc14fb51	-0.009093122
7	0x3e54a2fa	0.20765296
8	0xbf08056c	-0.53133273
9	0xbe5a82dd	-0.21338983
10	0x3d143f59	0.036193226
11	0xbec2c4e5	-0.38040844
12	0x3e88166b	0.26579604
13	0x3e3a5922	0.18198064
14	0x3d72f8d6	0.05931934
15	0x3e19843a	0.14991847
16	0xbd432e88	-0.047651798
17	0xbe2477a9	-0.16061272
18	0x3e5f09c6	0.21781072
19	0x3e82c706	0.25542468
20	0x3e6208ea	0.22073713
21	0x3dd4623e	0.10370301
22	0xbe73aa35	-0.23795398
23	0x3f149258	0.580358
24	0xbe9b0192	-0.30274636
25	0xbec5f5aa	-0.3866399
26	0x3e4ffa57	0.20310341
27	0xbe8fc201	-0.280777
28	0xbd9db379	-0.07700247
29	0xbe9581ca	-0.29200584
30	0x3d9501f5	0.07275764
31	0x3e76c67f	0.24099158
32	0xbdc2882d	-0.0949863
33	0x3f7b6908	0.9820714
34	0xbee24742	-0.4419499
35	0x3ec80549	0.39066532
36	0xbefef108	-0.49793267
37	0x3ea5585a	0.3229397
38	0xbf6c5bd5	-0.92327625
39	0x3e4c4c5c	0.19951004
40	0x3ec695fb	0.387863
41	0x3f43080b	0.7618415
42	0x3e8fc003	0.2807618
43	0xbd1bb7c4	-0.03801705
44	0x3ca7de28	0.020491675
45	0x3e959350	0.29213953
46	0x3f027510	0.50959873
47	0x3eab1c5f	0.33420083
48	0x3ea7e320	0.3279047
49	0xbd202544	-0.03909804
50	0x3ebc173a	0.3673647
51	0xbd7ed0cb	-0.06221084
52	0xbd5af11d	-0.0534526
53	0x3e26ed25	0.16301401
54	0x3d9c2155	0.07623545
55	0x3ca684f6	0.020327073
56	0xbed4c31d	-0.4155511
57	0xbe928c19	-0.2862251
58	0xbd5f2f4c	-0.054488465
59	0xbebccaea	-0.3687356
60	0xbe1bbbc6	-0.15208349
61	0xbe4fb2ab	-0.20283
62	0xbebd79c4	-0.37006962
63	0x3d33dae5	0.043909926
64	0xbe5132ec	-0.20429581
65	0x3e9d0c5d	0.30673495
66	0x3e0236da	0.12716237
67	0xbdfc3191	-0.123141415
68	0xbe578bf3	-0.2104948
69	0x3df284c5	0.1184173
70	0xbede009f	-0.4335985
71	0x3e4ce7fb	0.20010369
72	0x3f6aff27	0.9179558
73	0x3feb6202	1.8389285
74	0xbde49cb9	-0.11162705
75	0x3ecbdfcc	0.3981918
76	0xbe122f4c	-0.14275855
77	0xbe041fc2	-0.1290274
78	0x3d37bd6f	0.044858392
79	0x3e13c4fa	0.1443061
80	0x3d83f013	0.06442275
81	0xbdc199f7	-0.094531946
82	0x3e6014fc	0.21883005
83	0x3ec3f303	0.3827134
84	0xbe0d48a2	-0.13797238
85	0xbcc61745	-0.024181018
86	0x3dc22503	0.09479716
87	0xbd96ad9f	-0.07357334
88	0x3e228acf	0.15873264
89	0xbe4c6cf5	-0.19963439
90	0x3cac7ea5	0.021056483
91	0xbd85a1bf	-0.06524991
92	0x3e9afe9d	0.3027238
93	0x3e337722	0.17525914
94	0xbb5d6ea7	-0.0033787878
95	0xbd413ee7	-0.04717913
96	0xbebb8121	-0.36621955
97	0xbb944d24	-0.0045257974
98	0x3f038307	0.51371807
99	0xbe423867	-0.18966828
100	0xbf1cdebc	-0.61277366
101	0xbebef709	-0.37297848
102	0x3d3c611c	0.04599105
103	0xbd26510c	-0.040604636
104	0xbe9520c3	-0.29126558
105	0xbeeecb6a	-0.46639568
106	0xbe0f572d	-0.13998099
107	0xbc072144	-0.008247677
108	0x3f855463	1.0416378
109	0x3ca92bd7	0.020650787
110	0x3e42db27	0.19028912
111	0x3e20a085	0.15686233
112	0x3e08062c	0.13283604
113	0xbd802a2e	-0.06258045
114	0xbe93c534	-0.28861392
115	0xbd68c5cf	-0.05682927
116	0x3e8c88fa	0.27448255
117	0xbdc2a9ac	-0.095050186
118	0xbdec201c	-0.11529562
119	0xbeaab885	-0.33343902
120	0x3ea9ba27	0.33149835
121	0x3ed449ce	0.41462559
122	0x3d953cf1	0.07287014
123	0x3d947e21	0.0725062
124	0x3e05136a	0.12995687
125	0x3d16856d	0.03674834
126	0xbd430846	-0.047615312
127	0xbdc3f8ad	-0.095689155
128	0xbf0c752a	-0.5486628
129	0x3db65e76	0.08904736
130	0xbec4bf79	-0.38427332
131	0x3e06bddb	0.13158362
132	0x3e254fec	0.16143769
133	0x3de0aaae	0.109700546
134	0xbeaa8c37	-0.333101
135	0x3e4c1411	0.1992953
136	0x3f4f716a	0.8103243
137	0x3ebbcd4e	0.36680073
138	0x3ec9954d	0.3937172
139	0xbe4b1766	-0.19833145
140	0x3f825844	1.0183187
141	0x3dd2ef89	0.10299594
142	0xbd94805e	-0.072510466
143	0x3ea932d4	0.3304659
144	0xbee0ca35	-0.43904272
145	0x3f53dcf2	0.8275901
146	0xbd41bb93	-0.047298025
147	0x3e3b3577	0.18282114
148	0xbd01119e	-0.03151094
149	0xbe7859d6	-0.2425302
150	0xbf306d67	-0.68916935
151	0x3d09422c	0.033510372
152	0x3f4810ef	0.7815084
153	0x3f4bfc8f	0.7968225
154	0x3eadffcc	0.3398422
155	0xbf8c470d	-1.0959183
156	0x3f1cfe7d	0.6132582
157	0xbf0fb2fd	-0.5613249
158	0xbef245ef	-0.4731898
159	0x3e8649e1	0.2622824
160	0x3ddd2e22	0.10799815
161	0xbca42248	-0.020035878
162	0x3e4ba6bf	0.19887827
163	0x3db9ded6	0.09075706
164	0xbc8cc8c2	-0.017185573
165	0xbde9f5ae	-0.11423813
166	0xbd8c9640	-0.068645954
167	0x3e246fac	0.16058224
168	0xbf18b70d	-0.59654313
169	0xbf0a83ae	-0.5410718
170	0xbe2d68d9	-0.16934527
171	0xbd8db96b	-0.06920131
172	0xbec360f2	-0.381599
173	0xbe448271	-0.19190384
174	0x3e1f65c2	0.15566161
175	0xbe9f4403	-0.31106576
176	0x3ebb87d6	0.36627072
177	0xbf2ddda9	-0.6791635
178	0xbe905da7	-0.2819645
179	0xbe4d8660	-0.20070791
180	0x3e3d389e	0.18478629
181	0x3daf1ae9	0.085500546
182	0xbee46193	-0.44605693
183	0x3cf7396f	0.030178754
184	0xbeeb3cc9	-0.45944813
185	0xbd8a87fc	-0.06764218
186	0xbceabe51	-0.028655203
187	0x3e5497aa	0.2076098
188	0x3f52b322	0.82304585
189	0xbe6bd563	-0.2303062
190	0xbdaedb11	-0.08537877
191	0xbde4b79f	-0.111678354
192	0x3e6a8fa5	0.22906359
193	0x3e3057ed	0.17221041
194	0xbebb450d	-0.3657612
195	0x3d58f621	0.0529691
196	0xbebff94d	-0.3749489
197	0x3e3a7565	0.18208845
198	0xbe714a2f	-0.23563455
199	0xbd92ac21	-0.07161737
200	0x3ecaa6f3	0.39580497
201	0x3f1256bd	0.571636
202	0x3e3e4d21	0.1858411
203	0x3e88f6c5	0.2675077
204	0xbeb8ad53	-0.36069736
205	0x3d621e90	0.055204928
206	0x3e3fe839	0.1874093
207	0xbdab0201	-0.083499916
208	0x3ac7533f	0.0015207304
209	0x3e03b1a9	0.1286074
210	0xbc03035f	-0.007996409
211	0x3e53e083	0.20691113
212	0xbdb5e58c	-0.08881673
213	0x3e893e64	0.26805413
214	0x3e86c209	0.26319912
215	0xbde6f678	-0.11277479
216	0x3f01fad9	0.5077339
217	0x3c9fadfe	0.019492146
218	0xbe9ae4b9	-0.30252627
219	0xbe85d927	-0.26142237
220	0xbe434de6	-0.19072685
221	0xbe56df0e	-0.20983526
222	0x3e398240	0.18116093
223	0xbe96f19c	-0.29481208
224	0xbe47f664	-0.19527584
225	0x3e4039f8	0.18772113
226	0xbced6f19	-0.02898364
227	0xbdc81707	-0.09770017
228	0xbe86cfbb	-0.2633036
229	0xbe937e11	-0.2880712
230	0xbc912767	-0.017718984
231	0x3e83272c	0.25615823
232	0x3e7fdd8c	0.24986857
233	0x3f1117f9	0.56677204
234	0x3e11c5b7	0.14235578
235	0xbd9ff920	-0.07811189
236	0x3e9b4eb6	0.3033349
237	0x3c8083f4	0.01568792
238	0x3e36af46	0.17840299
239	0x3e04d896	0.12973246
240	0xbd7cd313	-0.061724734
241	0xbe5a3608	-0.21309674
242	0x3e915b77	0.28390095
243	0xbe4e2a36	-0.2013329
244	0xbe0a781b	-0.13522379
245	0xbe7433e0	-0.23847914
246	0x3f029594	0.5100949
247	0x3e89dd9d	0.2692689
248	0xbc514793	-0.012773412
249	0xbeffd099	-0.49963835
250	0xbdc0d217	-0.094150715
251	0xbc12cee2	-0.0089604575
252	0xbd8a5094	-0.0675365
253	0xbdefbb7f	-0.11705684
254	0xbdfc9f1a	-0.12335034
255	0xbe9a3876	-0.301212

lstm.bias_ih_l1 f4 [64]
0	0x3d490013	0.049072336
1	0x3db228b7	0.08699172
2	0x3e96b9f6	0.29438752
3	0xbc0e3da7	-0.008681691
4	0x3ceedcda	0.029158045
5	0x3ec57f83	0.38573846
6	0x3e3e23a1	0.18568279
7	0xbe36a5ba	-0.17836657
8	0x3eef8bfe	0.46786493
9	0x3edf7906	0.4364702
10	0xbdd2e23e	-0.102970585
11	0xbd7681c2	-0.06018234
12	0xbe116dad	-0.14201994
13	0xbe79449b	-0.24342577
14	0xbb8f9dc3	-0.0043828203
15	0x3dc39106	0.095491454
16	0x3e6d704a	0.23187366
17	0xbe4b5068	-0.19854891
18	0xbe2b3a9a	-0.16721573
19	0xbdb3504d	-0.087555505
20	0xbe88897a	-0.26667386
21	0x3e5644b9	0.20924653
22	0x3d126ba1	0.035747174
23	0xbe9380d1	-0.28809217
24	0xbf0b4a6c	-0.54410434
25	0xbf3b21ed	-0.7309864
26	0x3d4fe7f8	0.050758332
27	0xbdd8f9e3	-0.10594537
28	0x3d861528	0.06547004
29	0xbe15554c	-0.1458332
30	0xbe0d714f	-0.13812755
31	0x3de9d060	0.114166975
32	0xbe9dab6a	-0.3079484
33	0xbbeebebd	-0.0072859214
34	0xbe60ec63	-0.21965174
35	0x3e12b44a	0.14326587
36	0x3b968931	0.004593991
37	0x3e70a5d5	0.2350076
38	0xbd66a6a2	-0.056311257
39	0x3e6ec110	0.23315835
40	0x3d7bf236	0.061510287
41	0xbe1de928	-0.15420973
42	0x3e8b9533	0.27262267
43	0xbe040be1	-0.12895156
44	0x3e9e48f5	0.30915037
45	0x3e48e799	0.19619597
46	0x3e406aa3	0.18790679
47	0x3e8388d8	0.2569034
48	0x3d0e4211	0.034730975
49	0xbba9449f	-0.005165651
50	0x3ed0d38d	0.407864
51	0x3d4b7cb1	0.049679462
52	0xbdc1cad7	-0.09462517
53	0x3dd60cbe	0.10451649
54	0x3e43f58b	0.19136636
55	0xbd1c7dc7	-0.038205888
56	0xbe21816c	-0.15772027
57	0x3db5484f	0.088516824
58	0xbd9de0e9	-0.07708914
59	0x3da80dc4	0.082057506
60	0xbe879e18	-0.26487803
61	0x3d0f121e	0.034929387
62	0x3a5f9b83	0.0008529948
63	0x3dab636f	0.08368575

lstm.bias_hh_l1 f4 [64]
0	0x3eb01b72	0.3439594
1	0x3e9b1315	0.30287996
2	0x3dcf1748	0.101118624
3	0x3e58e13d	0.21179672
4	0xbe5a0e16	-0.21294436
5	0x3d09827b	0.0335717
6	0x3e82d556	0.25553387
7	0x3e133965	0.14377363
8	0x3e8f5a90	0.2799878
9	0x3ef95c85	0.487034
10	0xbbe25862	-0.0069075087
11	0xbca50ed9	-0.020148681
12	0x3e130b5e	0.14359805
13	0xbdbf7677	-0.09348767
14	0x3e11aa5f	0.14225148
15	0x3de59371	0.11209763
16	0x3dc8c7a1	0.09803701
17	0xbdd7d99d	-0.10539553
18	0xbe1c5c0d	-0.1526949
19	0xbe4fa92b	-0.20279376
20	0x3da8fc2a	0.082512215
21	0x3e337cdd	0.175281
22	0xbee219ab	-0.44160208
23	0xbd872502	-0.065988556
24	0xbf4dd728	-0.8040643
25	0xbed15fde	-0.40893453
26	0xbe5eb791	-0.21749713
27	0xbe423a2e	-0.18967506
28	0xbe5484d5	-0.20753796
29	0x3cc8b880	0.024502039
30	0x3c818f1d	0.015815312
31	0xbe54e304	-0.20789725
32	0xbe90af7d	-0.28258887
33	0x3e4b9039	0.19879235
34	0x3ca11afe	0.019666191
35	0x3e0db8dd	0.13840051
36	0x3d147535	0.03624459
37	0xbd81089c	-0.0630047
38	0x3e189eec	0.14904374
39	0x3e48d026	0.19610652
40	0x3d8ec7e9	0.069717236
41	0x3e23a226	0.15979823
42	0x3dcb027f	0.099125855
43	0xbe052aae	-0.13004562
44	0x3e5946b6	0.2121838
45	0x3d13717e	0.035996906
46	0x3dfea1d6	0.124332115
47	0x3d0a54aa	0.03377215
48	0xbe17998a	-0.14804664
49	0x3d58baaf	0.05291241
50	0x3ea0c1e9	0.31397942
51	0x3e44cfe3	0.19219927
52	0x3d2a179c	0.041526422
53	0x3dd0a535	0.10187761
54	0xbe3bb337	-0.18330084
55	0x3dadaa2f	0.084797256
56	0x3e0acd67	0.13554917
57	0x3e496adc	0.1966967
58	0xbe608e1f	-0.21929215
59	0xbea6dd76	-0.32590836
60	0xbea1e750	-0.3162179
61	0x3d8d49a0	0.068988085
62	0x3e426553	0.18983965
63	0x3cc01cd1	0.02345124

fc.weight f4 [4, 16]
0	0x3e5c98d0	0.21542668
1	0x3db16462	0.086617246
2	0xbe0c544e	-0.13704035
3	0x3e1795ad	0.1480319
4	0xbd7e1a79	-0.062036965
5	0x3dcc95c8	0.09989506
6	0xbe8aa4a0	-0.27078724
7	0xbe760f23	-0.24029212
8	0x3e344d31	0.17607571
9	0x3e24eb31	0.16105343
10	0x3c33b89e	0.010969309
11	0x3e1c0d4c	0.15239447
12	0xbdeb2cd9	-0.114831634
13	0x3e8af0fc	0.2713698
14	0x3e856519	0.26053694
15	0x3b962b77	0.004582818
16	0x3d657a22	0.056024678
17	0x3e1a8df0	0.15093207
18	0xbe83eb10	-0.25765276
19	0x3ce1c3ed	0.027559245
20	0xbe0aec62	-0.13566735
21	0x3e482823	0.19546561
22	0xbe594be8	-0.21220362
23	0xbde62a77	-0.11238568
24	0x3e88d29d	0.26723185
25	0x3e893946	0.2680151
26	0x3d3ff0a4	0.046860352
27	0x3ba45c19	0.0050158617
28	0x3c66c69d	0.014085439
29	0x3e417120	0.1889081
30	0x3e890969	0.26764992
31	0x3e26349f	0.16231011
32	0xbea4513b	-0.32093224
33	0x3e10d417	0.14143406
34	0xbeca0433	-0.3945633
35	0x3e97c17f	0.29639813
36	0xbe72f297	-0.23725353
37	0x3e73ae87	0.23797046
38	0x3d9a4f81	0.075346954
39	0x3cc2c6a2	0.023776356
40	0x3eadfc2f	0.33981463
41	0x3ed92873	0.42413673
42	0x3e9f5abd	0.31123915
43	0x3d702ddd	0.05863749
44	0x3e0dc2e5	0.13843878
45	0x3dd9650d	0.10614977
46	0x3e8f1e17	0.27952644
47	0x3e5221ad	0.20520659
48	0xbec6e9bd	-0.38850203
49	0x3ce7357e	0.02822375
50	0xbeedaa9b	-0.46419224
51	0x3daa364f	0.0831114
52	0xbed497b8	-0.41522002
53	0x3eba77fa	0.3641966
54	0x3e65fbd8	0.22459352
55	0x3c909f71	0.017654153
56	0x3ec8be7f	0.39207837
57	0x3f0eb2a8	0.5574136
58	0x3ce2500e	0.027626064
59	0xbeb3e7c8	-0.35137773
60	0xbee818b6	-0.45331353
61	0xbd66d4f7	-0.056355443
62	0x3dc72a98	0.09724921
63	0xbdf22c54	-0.11824861

fc.bias f4 [4]
0	0x3e8050e0	0.25061703
1	0x3e345fe3	0.17614703
2	0xbcff7ef5	-0.031188468
3	0x3e4a8f86	0.19781312
