trained_lstm_model.pth (torch, 2273 bytes, 6 tensors)

lstm.weight_ih_l0 f4 [8, 1]
0	0x3f03bcbd	0.51459867
1	0x3f302575	0.68807155
2	0x3df101ff	0.11767959
3	0x3f43606f	0.7631902
4	0xbfbee40a	-1.4913342
5	0xbf425126	-0.7590507
6	0x3f8ac408	1.0841074
7	0x3fcdb368	1.6070375

lstm.weight_hh_l0 f4 [8, 2]
0	0xbf60f4e3	-0.8787367
1	0xbfdc3ad0	-1.7205448
2	0xbf1d8f41	-0.61546713
3	0xbf5c8198	-0.86135244
4	0x3f898540	1.074379
5	0x3ef0e545	0.4704992
6	0x3f86f271	1.0542737
7	0xbe707579	-0.23482312
8	0xbf52e626	-0.8238243
9	0xbd812c4f	-0.06307279
10	0xbeee2074	-0.46509135
11	0xbef5b54f	-0.4798989
12	0xbf2b9761	-0.6702786
13	0xbf91fc5d	-1.140514
14	0xbfb3b623	-1.4039959
15	0x3daa515e	0.08316301

lstm.bias_ih_l0 f4 [8]
0	0x3f117937	0.56825584
1	0xbeb81057	-0.35949966
2	0xbf0dc623	-0.5538046
3	0x3f03c63e	0.5147437
4	0xbddec344	-0.10877088
5	0xbee05853	-0.43817386
6	0xbd0669d1	-0.03281576
7	0x3ef08819	0.46978834

lstm.bias_hh_l0 f4 [8]
0	0x3f0a3c48	0.5399823
1	0x3f82b896	1.0212581
2	0x3e250581	0.16115381
3	0xbe936d8d	-0.28794518
4	0x3e9835b4	0.29728472
5	0x3df2d862	0.11857678
6	0x3f59aea2	0.85032094
7	0x3f0ffcb0	0.56244946

fc.weight f4 [4, 2]
0	0xbefeda39	-0.49775866
1	0xbf9ed7b4	-1.2409577
2	0xbf9defd8	-1.233882
3	0x3dfe1d25	0.12407903
4	0xbf6db660	-0.9285641
5	0xbebba10b	-0.36646304
6	0xbf72dcb2	-0.94868004
7	0xbe8ccca4	-0.27499878

fc.bias f4 [4]
0	0xbe91303c	-0.28357112
1	0x3e401410	0.18757653
2	0x3cb8c730	0.022555918
3	0x3d6a4276	0.05719229
